{"format": "graph-model", "generatedBy": "2.6.0", "convertedBy": "TensorFlow.js Converter v3.9.0", "signature": {"inputs": {"input.1": {"name": "input_1:0", "dtype": "DT_FLOAT", "tensorShape": {"dim": [{"size": "1"}, {"size": "1"}, {"size": "176"}]}}}, "outputs": {"350": {"name": "Identity:0", "dtype": "DT_FLOAT", "tensorShape": {"dim": [{"size": "1"}, {"size": "5"}]}}}}, "modelTopology": {"node": [{"name": "StatefulPartitionedCall/Const_31", "op": "Const", "attr": {"value": {"tensor": {"dtype": "DT_INT32", "tensorShape": {"dim": [{"size": "3"}, {"size": "2"}]}}}, "dtype": {"type": "DT_INT32"}}}, {"name": "StatefulPartitionedCall/transpose_105/perm", "op": "Const", "attr": {"value": {"tensor": {"dtype": "DT_INT32", "tensorShape": {"dim": [{"size": "3"}]}}}, "dtype": {"type": "DT_INT32"}}}, {"name": "StatefulPartitionedCall/convolution_34/ExpandDims/dim", "op": "Const", "attr": {"value": {"tensor": {"dtype": "DT_INT32", "tensorShape": {}}}, "dtype": {"type": "DT_INT32"}}}, {"name": "StatefulPartitionedCall/convolution_34/ExpandDims_1", "op": "Const", "attr": {"value": {"tensor": {"dtype": "DT_FLOAT", "tensorShape": {"dim": [{"size": "1"}, {"size": "3"}, {"size": "512"}, {"size": "512"}]}}}, "dtype": {"type": "DT_FLOAT"}}}, {"name": "unknown_68", "op": "Const", "attr": {"dtype": {"type": "DT_FLOAT"}, "value": {"tensor": {"dtype": "DT_FLOAT", "tensorShape": {"dim": [{"size": "512"}]}}}}}, {"name": "StatefulPartitionedCall/transpose_106/perm", "op": "Const", "attr": {"value": {"tensor": {"dtype": "DT_INT32", "tensorShape": {"dim": [{"size": "3"}]}}}, "dtype": {"type": "DT_INT32"}}}, {"name": "StatefulPartitionedCall/Const_32", "op": "Const", "attr": {"dtype": {"type": "DT_INT32"}, "value": {"tensor": {"dtype": "DT_INT32", "tensorShape": {"dim": [{"size": "3"}, {"size": "2"}]}}}}}, {"name": "StatefulPartitionedCall/transpose_108/perm", "op": "Const", "attr": {"value": {"tensor": {"dtype": "DT_INT32", "tensorShape": {"dim": [{"size": "3"}]}}}, "dtype": {"type": "DT_INT32"}}}, {"name": "StatefulPartitionedCall/convolution_35/ExpandDims/dim", "op": "Const", "attr": {"value": {"tensor": {"dtype": "DT_INT32", "tensorShape": {}}}, "dtype": {"type": "DT_INT32"}}}, {"name": "StatefulPartitionedCall/convolution_35/ExpandDims_1", "op": "Const", "attr": {"value": {"tensor": {"dtype": "DT_FLOAT", "tensorShape": {"dim": [{"size": "1"}, {"size": "3"}, {"size": "512"}, {"size": "512"}]}}}, "dtype": {"type": "DT_FLOAT"}}}, {"name": "unknown_70", "op": "Const", "attr": {"dtype": {"type": "DT_FLOAT"}, "value": {"tensor": {"dtype": "DT_FLOAT", "tensorShape": {"dim": [{"size": "512"}]}}}}}, {"name": "StatefulPartitionedCall/transpose_109/perm", "op": "Const", "attr": {"dtype": {"type": "DT_INT32"}, "value": {"tensor": {"dtype": "DT_INT32", "tensorShape": {"dim": [{"size": "3"}]}}}}}, {"name": "StatefulPartitionedCall/Const_29", "op": "Const", "attr": {"value": {"tensor": {"dtype": "DT_INT32", "tensorShape": {"dim": [{"size": "3"}, {"size": "2"}]}}}, "dtype": {"type": "DT_INT32"}}}, {"name": "StatefulPartitionedCall/transpose_99/perm", "op": "Const", "attr": {"dtype": {"type": "DT_INT32"}, "value": {"tensor": {"dtype": "DT_INT32", "tensorShape": {"dim": [{"size": "3"}]}}}}}, {"name": "StatefulPartitionedCall/convolution_32/ExpandDims/dim", "op": "Const", "attr": {"dtype": {"type": "DT_INT32"}, "value": {"tensor": {"dtype": "DT_INT32", "tensorShape": {}}}}}, {"name": "StatefulPartitionedCall/convolution_32/ExpandDims_1", "op": "Const", "attr": {"value": {"tensor": {"dtype": "DT_FLOAT", "tensorShape": {"dim": [{"size": "1"}, {"size": "3"}, {"size": "512"}, {"size": "512"}]}}}, "dtype": {"type": "DT_FLOAT"}}}, {"name": "unknown_64", "op": "Const", "attr": {"value": {"tensor": {"dtype": "DT_FLOAT", "tensorShape": {"dim": [{"size": "512"}]}}}, "dtype": {"type": "DT_FLOAT"}}}, {"name": "StatefulPartitionedCall/transpose_100/perm", "op": "Const", "attr": {"value": {"tensor": {"dtype": "DT_INT32", "tensorShape": {"dim": [{"size": "3"}]}}}, "dtype": {"type": "DT_INT32"}}}, {"name": "StatefulPartitionedCall/Const_30", "op": "Const", "attr": {"value": {"tensor": {"dtype": "DT_INT32", "tensorShape": {"dim": [{"size": "3"}, {"size": "2"}]}}}, "dtype": {"type": "DT_INT32"}}}, {"name": "StatefulPartitionedCall/transpose_102/perm", "op": "Const", "attr": {"dtype": {"type": "DT_INT32"}, "value": {"tensor": {"dtype": "DT_INT32", "tensorShape": {"dim": [{"size": "3"}]}}}}}, {"name": "StatefulPartitionedCall/convolution_33/ExpandDims/dim", "op": "Const", "attr": {"dtype": {"type": "DT_INT32"}, "value": {"tensor": {"dtype": "DT_INT32", "tensorShape": {}}}}}, {"name": "StatefulPartitionedCall/convolution_33/ExpandDims_1", "op": "Const", "attr": {"dtype": {"type": "DT_FLOAT"}, "value": {"tensor": {"dtype": "DT_FLOAT", "tensorShape": {"dim": [{"size": "1"}, {"size": "3"}, {"size": "512"}, {"size": "512"}]}}}}}, {"name": "unknown_66", "op": "Const", "attr": {"dtype": {"type": "DT_FLOAT"}, "value": {"tensor": {"dtype": "DT_FLOAT", "tensorShape": {"dim": [{"size": "512"}]}}}}}, {"name": "StatefulPartitionedCall/transpose_103/perm", "op": "Const", "attr": {"dtype": {"type": "DT_INT32"}, "value": {"tensor": {"dtype": "DT_INT32", "tensorShape": {"dim": [{"size": "3"}]}}}}}, {"name": "StatefulPartitionedCall/Const_27", "op": "Const", "attr": {"value": {"tensor": {"dtype": "DT_INT32", "tensorShape": {"dim": [{"size": "3"}, {"size": "2"}]}}}, "dtype": {"type": "DT_INT32"}}}, {"name": "StatefulPartitionedCall/transpose_90/perm", "op": "Const", "attr": {"value": {"tensor": {"dtype": "DT_INT32", "tensorShape": {"dim": [{"size": "3"}]}}}, "dtype": {"type": "DT_INT32"}}}, {"name": "StatefulPartitionedCall/convolution_29/ExpandDims/dim", "op": "Const", "attr": {"dtype": {"type": "DT_INT32"}, "value": {"tensor": {"dtype": "DT_INT32", "tensorShape": {}}}}}, {"name": "StatefulPartitionedCall/convolution_29/ExpandDims_1", "op": "Const", "attr": {"dtype": {"type": "DT_FLOAT"}, "value": {"tensor": {"dtype": "DT_FLOAT", "tensorShape": {"dim": [{"size": "1"}, {"size": "3"}, {"size": "256"}, {"size": "512"}]}}}}}, {"name": "unknown_58", "op": "Const", "attr": {"value": {"tensor": {"dtype": "DT_FLOAT", "tensorShape": {"dim": [{"size": "512"}]}}}, "dtype": {"type": "DT_FLOAT"}}}, {"name": "StatefulPartitionedCall/transpose_91/perm", "op": "Const", "attr": {"value": {"tensor": {"dtype": "DT_INT32", "tensorShape": {"dim": [{"size": "3"}]}}}, "dtype": {"type": "DT_INT32"}}}, {"name": "StatefulPartitionedCall/Const_28", "op": "Const", "attr": {"value": {"tensor": {"dtype": "DT_INT32", "tensorShape": {"dim": [{"size": "3"}, {"size": "2"}]}}}, "dtype": {"type": "DT_INT32"}}}, {"name": "StatefulPartitionedCall/transpose_93/perm", "op": "Const", "attr": {"dtype": {"type": "DT_INT32"}, "value": {"tensor": {"dtype": "DT_INT32", "tensorShape": {"dim": [{"size": "3"}]}}}}}, {"name": "StatefulPartitionedCall/convolution_30/ExpandDims/dim", "op": "Const", "attr": {"value": {"tensor": {"dtype": "DT_INT32", "tensorShape": {}}}, "dtype": {"type": "DT_INT32"}}}, {"name": "StatefulPartitionedCall/convolution_30/ExpandDims_1", "op": "Const", "attr": {"dtype": {"type": "DT_FLOAT"}, "value": {"tensor": {"dtype": "DT_FLOAT", "tensorShape": {"dim": [{"size": "1"}, {"size": "3"}, {"size": "512"}, {"size": "512"}]}}}}}, {"name": "unknown_60", "op": "Const", "attr": {"dtype": {"type": "DT_FLOAT"}, "value": {"tensor": {"dtype": "DT_FLOAT", "tensorShape": {"dim": [{"size": "512"}]}}}}}, {"name": "StatefulPartitionedCall/transpose_94/perm", "op": "Const", "attr": {"dtype": {"type": "DT_INT32"}, "value": {"tensor": {"dtype": "DT_INT32", "tensorShape": {"dim": [{"size": "3"}]}}}}}, {"name": "StatefulPartitionedCall/Const_25", "op": "Const", "attr": {"value": {"tensor": {"dtype": "DT_INT32", "tensorShape": {"dim": [{"size": "3"}, {"size": "2"}]}}}, "dtype": {"type": "DT_INT32"}}}, {"name": "StatefulPartitionedCall/transpose_84/perm", "op": "Const", "attr": {"value": {"tensor": {"dtype": "DT_INT32", "tensorShape": {"dim": [{"size": "3"}]}}}, "dtype": {"type": "DT_INT32"}}}, {"name": "StatefulPartitionedCall/convolution_27/ExpandDims/dim", "op": "Const", "attr": {"dtype": {"type": "DT_INT32"}, "value": {"tensor": {"dtype": "DT_INT32", "tensorShape": {}}}}}, {"name": "StatefulPartitionedCall/convolution_27/ExpandDims_1", "op": "Const", "attr": {"value": {"tensor": {"dtype": "DT_FLOAT", "tensorShape": {"dim": [{"size": "1"}, {"size": "3"}, {"size": "256"}, {"size": "256"}]}}}, "dtype": {"type": "DT_FLOAT"}}}, {"name": "unknown_54", "op": "Const", "attr": {"dtype": {"type": "DT_FLOAT"}, "value": {"tensor": {"dtype": "DT_FLOAT", "tensorShape": {"dim": [{"size": "256"}]}}}}}, {"name": "StatefulPartitionedCall/transpose_85/perm", "op": "Const", "attr": {"dtype": {"type": "DT_INT32"}, "value": {"tensor": {"dtype": "DT_INT32", "tensorShape": {"dim": [{"size": "3"}]}}}}}, {"name": "StatefulPartitionedCall/Const_26", "op": "Const", "attr": {"value": {"tensor": {"dtype": "DT_INT32", "tensorShape": {"dim": [{"size": "3"}, {"size": "2"}]}}}, "dtype": {"type": "DT_INT32"}}}, {"name": "StatefulPartitionedCall/transpose_87/perm", "op": "Const", "attr": {"dtype": {"type": "DT_INT32"}, "value": {"tensor": {"dtype": "DT_INT32", "tensorShape": {"dim": [{"size": "3"}]}}}}}, {"name": "StatefulPartitionedCall/convolution_28/ExpandDims/dim", "op": "Const", "attr": {"value": {"tensor": {"dtype": "DT_INT32", "tensorShape": {}}}, "dtype": {"type": "DT_INT32"}}}, {"name": "StatefulPartitionedCall/convolution_28/ExpandDims_1", "op": "Const", "attr": {"value": {"tensor": {"dtype": "DT_FLOAT", "tensorShape": {"dim": [{"size": "1"}, {"size": "3"}, {"size": "256"}, {"size": "256"}]}}}, "dtype": {"type": "DT_FLOAT"}}}, {"name": "unknown_56", "op": "Const", "attr": {"value": {"tensor": {"dtype": "DT_FLOAT", "tensorShape": {"dim": [{"size": "256"}]}}}, "dtype": {"type": "DT_FLOAT"}}}, {"name": "StatefulPartitionedCall/transpose_88/perm", "op": "Const", "attr": {"dtype": {"type": "DT_INT32"}, "value": {"tensor": {"dtype": "DT_INT32", "tensorShape": {"dim": [{"size": "3"}]}}}}}, {"name": "StatefulPartitionedCall/Const_23", "op": "Const", "attr": {"dtype": {"type": "DT_INT32"}, "value": {"tensor": {"dtype": "DT_INT32", "tensorShape": {"dim": [{"size": "3"}, {"size": "2"}]}}}}}, {"name": "StatefulPartitionedCall/transpose_78/perm", "op": "Const", "attr": {"value": {"tensor": {"dtype": "DT_INT32", "tensorShape": {"dim": [{"size": "3"}]}}}, "dtype": {"type": "DT_INT32"}}}, {"name": "StatefulPartitionedCall/convolution_25/ExpandDims/dim", "op": "Const", "attr": {"dtype": {"type": "DT_INT32"}, "value": {"tensor": {"dtype": "DT_INT32", "tensorShape": {}}}}}, {"name": "StatefulPartitionedCall/convolution_25/ExpandDims_1", "op": "Const", "attr": {"dtype": {"type": "DT_FLOAT"}, "value": {"tensor": {"dtype": "DT_FLOAT", "tensorShape": {"dim": [{"size": "1"}, {"size": "3"}, {"size": "256"}, {"size": "256"}]}}}}}, {"name": "unknown_50", "op": "Const", "attr": {"value": {"tensor": {"dtype": "DT_FLOAT", "tensorShape": {"dim": [{"size": "256"}]}}}, "dtype": {"type": "DT_FLOAT"}}}, {"name": "StatefulPartitionedCall/transpose_79/perm", "op": "Const", "attr": {"value": {"tensor": {"dtype": "DT_INT32", "tensorShape": {"dim": [{"size": "3"}]}}}, "dtype": {"type": "DT_INT32"}}}, {"name": "StatefulPartitionedCall/Const_24", "op": "Const", "attr": {"value": {"tensor": {"dtype": "DT_INT32", "tensorShape": {"dim": [{"size": "3"}, {"size": "2"}]}}}, "dtype": {"type": "DT_INT32"}}}, {"name": "StatefulPartitionedCall/transpose_81/perm", "op": "Const", "attr": {"dtype": {"type": "DT_INT32"}, "value": {"tensor": {"dtype": "DT_INT32", "tensorShape": {"dim": [{"size": "3"}]}}}}}, {"name": "StatefulPartitionedCall/convolution_26/ExpandDims/dim", "op": "Const", "attr": {"dtype": {"type": "DT_INT32"}, "value": {"tensor": {"dtype": "DT_INT32", "tensorShape": {}}}}}, {"name": "StatefulPartitionedCall/convolution_26/ExpandDims_1", "op": "Const", "attr": {"dtype": {"type": "DT_FLOAT"}, "value": {"tensor": {"dtype": "DT_FLOAT", "tensorShape": {"dim": [{"size": "1"}, {"size": "3"}, {"size": "256"}, {"size": "256"}]}}}}}, {"name": "unknown_52", "op": "Const", "attr": {"value": {"tensor": {"dtype": "DT_FLOAT", "tensorShape": {"dim": [{"size": "256"}]}}}, "dtype": {"type": "DT_FLOAT"}}}, {"name": "StatefulPartitionedCall/transpose_82/perm", "op": "Const", "attr": {"dtype": {"type": "DT_INT32"}, "value": {"tensor": {"dtype": "DT_INT32", "tensorShape": {"dim": [{"size": "3"}]}}}}}, {"name": "StatefulPartitionedCall/Const_21", "op": "Const", "attr": {"dtype": {"type": "DT_INT32"}, "value": {"tensor": {"dtype": "DT_INT32", "tensorShape": {"dim": [{"size": "3"}, {"size": "2"}]}}}}}, {"name": "StatefulPartitionedCall/transpose_72/perm", "op": "Const", "attr": {"dtype": {"type": "DT_INT32"}, "value": {"tensor": {"dtype": "DT_INT32", "tensorShape": {"dim": [{"size": "3"}]}}}}}, {"name": "StatefulPartitionedCall/convolution_23/ExpandDims/dim", "op": "Const", "attr": {"dtype": {"type": "DT_INT32"}, "value": {"tensor": {"dtype": "DT_INT32", "tensorShape": {}}}}}, {"name": "StatefulPartitionedCall/convolution_23/ExpandDims_1", "op": "Const", "attr": {"value": {"tensor": {"dtype": "DT_FLOAT", "tensorShape": {"dim": [{"size": "1"}, {"size": "3"}, {"size": "256"}, {"size": "256"}]}}}, "dtype": {"type": "DT_FLOAT"}}}, {"name": "unknown_46", "op": "Const", "attr": {"value": {"tensor": {"dtype": "DT_FLOAT", "tensorShape": {"dim": [{"size": "256"}]}}}, "dtype": {"type": "DT_FLOAT"}}}, {"name": "StatefulPartitionedCall/transpose_73/perm", "op": "Const", "attr": {"dtype": {"type": "DT_INT32"}, "value": {"tensor": {"dtype": "DT_INT32", "tensorShape": {"dim": [{"size": "3"}]}}}}}, {"name": "StatefulPartitionedCall/Const_22", "op": "Const", "attr": {"value": {"tensor": {"dtype": "DT_INT32", "tensorShape": {"dim": [{"size": "3"}, {"size": "2"}]}}}, "dtype": {"type": "DT_INT32"}}}, {"name": "StatefulPartitionedCall/transpose_75/perm", "op": "Const", "attr": {"dtype": {"type": "DT_INT32"}, "value": {"tensor": {"dtype": "DT_INT32", "tensorShape": {"dim": [{"size": "3"}]}}}}}, {"name": "StatefulPartitionedCall/convolution_24/ExpandDims/dim", "op": "Const", "attr": {"dtype": {"type": "DT_INT32"}, "value": {"tensor": {"dtype": "DT_INT32", "tensorShape": {}}}}}, {"name": "StatefulPartitionedCall/convolution_24/ExpandDims_1", "op": "Const", "attr": {"value": {"tensor": {"dtype": "DT_FLOAT", "tensorShape": {"dim": [{"size": "1"}, {"size": "3"}, {"size": "256"}, {"size": "256"}]}}}, "dtype": {"type": "DT_FLOAT"}}}, {"name": "unknown_48", "op": "Const", "attr": {"value": {"tensor": {"dtype": "DT_FLOAT", "tensorShape": {"dim": [{"size": "256"}]}}}, "dtype": {"type": "DT_FLOAT"}}}, {"name": "StatefulPartitionedCall/transpose_76/perm", "op": "Const", "attr": {"dtype": {"type": "DT_INT32"}, "value": {"tensor": {"dtype": "DT_INT32", "tensorShape": {"dim": [{"size": "3"}]}}}}}, {"name": "StatefulPartitionedCall/Const_19", "op": "Const", "attr": {"dtype": {"type": "DT_INT32"}, "value": {"tensor": {"dtype": "DT_INT32", "tensorShape": {"dim": [{"size": "3"}, {"size": "2"}]}}}}}, {"name": "StatefulPartitionedCall/transpose_66/perm", "op": "Const", "attr": {"dtype": {"type": "DT_INT32"}, "value": {"tensor": {"dtype": "DT_INT32", "tensorShape": {"dim": [{"size": "3"}]}}}}}, {"name": "StatefulPartitionedCall/convolution_21/ExpandDims/dim", "op": "Const", "attr": {"dtype": {"type": "DT_INT32"}, "value": {"tensor": {"dtype": "DT_INT32", "tensorShape": {}}}}}, {"name": "StatefulPartitionedCall/convolution_21/ExpandDims_1", "op": "Const", "attr": {"dtype": {"type": "DT_FLOAT"}, "value": {"tensor": {"dtype": "DT_FLOAT", "tensorShape": {"dim": [{"size": "1"}, {"size": "3"}, {"size": "256"}, {"size": "256"}]}}}}}, {"name": "unknown_42", "op": "Const", "attr": {"value": {"tensor": {"dtype": "DT_FLOAT", "tensorShape": {"dim": [{"size": "256"}]}}}, "dtype": {"type": "DT_FLOAT"}}}, {"name": "StatefulPartitionedCall/transpose_67/perm", "op": "Const", "attr": {"value": {"tensor": {"dtype": "DT_INT32", "tensorShape": {"dim": [{"size": "3"}]}}}, "dtype": {"type": "DT_INT32"}}}, {"name": "StatefulPartitionedCall/Const_20", "op": "Const", "attr": {"value": {"tensor": {"dtype": "DT_INT32", "tensorShape": {"dim": [{"size": "3"}, {"size": "2"}]}}}, "dtype": {"type": "DT_INT32"}}}, {"name": "StatefulPartitionedCall/transpose_69/perm", "op": "Const", "attr": {"dtype": {"type": "DT_INT32"}, "value": {"tensor": {"dtype": "DT_INT32", "tensorShape": {"dim": [{"size": "3"}]}}}}}, {"name": "StatefulPartitionedCall/convolution_22/ExpandDims/dim", "op": "Const", "attr": {"dtype": {"type": "DT_INT32"}, "value": {"tensor": {"dtype": "DT_INT32", "tensorShape": {}}}}}, {"name": "StatefulPartitionedCall/convolution_22/ExpandDims_1", "op": "Const", "attr": {"value": {"tensor": {"dtype": "DT_FLOAT", "tensorShape": {"dim": [{"size": "1"}, {"size": "3"}, {"size": "256"}, {"size": "256"}]}}}, "dtype": {"type": "DT_FLOAT"}}}, {"name": "unknown_44", "op": "Const", "attr": {"value": {"tensor": {"dtype": "DT_FLOAT", "tensorShape": {"dim": [{"size": "256"}]}}}, "dtype": {"type": "DT_FLOAT"}}}, {"name": "StatefulPartitionedCall/transpose_70/perm", "op": "Const", "attr": {"value": {"tensor": {"dtype": "DT_INT32", "tensorShape": {"dim": [{"size": "3"}]}}}, "dtype": {"type": "DT_INT32"}}}, {"name": "StatefulPartitionedCall/Const_17", "op": "Const", "attr": {"value": {"tensor": {"dtype": "DT_INT32", "tensorShape": {"dim": [{"size": "3"}, {"size": "2"}]}}}, "dtype": {"type": "DT_INT32"}}}, {"name": "StatefulPartitionedCall/transpose_60/perm", "op": "Const", "attr": {"value": {"tensor": {"dtype": "DT_INT32", "tensorShape": {"dim": [{"size": "3"}]}}}, "dtype": {"type": "DT_INT32"}}}, {"name": "StatefulPartitionedCall/convolution_19/ExpandDims/dim", "op": "Const", "attr": {"dtype": {"type": "DT_INT32"}, "value": {"tensor": {"dtype": "DT_INT32", "tensorShape": {}}}}}, {"name": "StatefulPartitionedCall/convolution_19/ExpandDims_1", "op": "Const", "attr": {"value": {"tensor": {"dtype": "DT_FLOAT", "tensorShape": {"dim": [{"size": "1"}, {"size": "3"}, {"size": "256"}, {"size": "256"}]}}}, "dtype": {"type": "DT_FLOAT"}}}, {"name": "unknown_38", "op": "Const", "attr": {"dtype": {"type": "DT_FLOAT"}, "value": {"tensor": {"dtype": "DT_FLOAT", "tensorShape": {"dim": [{"size": "256"}]}}}}}, {"name": "StatefulPartitionedCall/transpose_61/perm", "op": "Const", "attr": {"value": {"tensor": {"dtype": "DT_INT32", "tensorShape": {"dim": [{"size": "3"}]}}}, "dtype": {"type": "DT_INT32"}}}, {"name": "StatefulPartitionedCall/Const_18", "op": "Const", "attr": {"dtype": {"type": "DT_INT32"}, "value": {"tensor": {"dtype": "DT_INT32", "tensorShape": {"dim": [{"size": "3"}, {"size": "2"}]}}}}}, {"name": "StatefulPartitionedCall/transpose_63/perm", "op": "Const", "attr": {"dtype": {"type": "DT_INT32"}, "value": {"tensor": {"dtype": "DT_INT32", "tensorShape": {"dim": [{"size": "3"}]}}}}}, {"name": "StatefulPartitionedCall/convolution_20/ExpandDims/dim", "op": "Const", "attr": {"value": {"tensor": {"dtype": "DT_INT32", "tensorShape": {}}}, "dtype": {"type": "DT_INT32"}}}, {"name": "StatefulPartitionedCall/convolution_20/ExpandDims_1", "op": "Const", "attr": {"value": {"tensor": {"dtype": "DT_FLOAT", "tensorShape": {"dim": [{"size": "1"}, {"size": "3"}, {"size": "256"}, {"size": "256"}]}}}, "dtype": {"type": "DT_FLOAT"}}}, {"name": "unknown_40", "op": "Const", "attr": {"dtype": {"type": "DT_FLOAT"}, "value": {"tensor": {"dtype": "DT_FLOAT", "tensorShape": {"dim": [{"size": "256"}]}}}}}, {"name": "StatefulPartitionedCall/transpose_64/perm", "op": "Const", "attr": {"value": {"tensor": {"dtype": "DT_INT32", "tensorShape": {"dim": [{"size": "3"}]}}}, "dtype": {"type": "DT_INT32"}}}, {"name": "StatefulPartitionedCall/Const_15", "op": "Const", "attr": {"value": {"tensor": {"dtype": "DT_INT32", "tensorShape": {"dim": [{"size": "3"}, {"size": "2"}]}}}, "dtype": {"type": "DT_INT32"}}}, {"name": "StatefulPartitionedCall/transpose_51/perm", "op": "Const", "attr": {"value": {"tensor": {"dtype": "DT_INT32", "tensorShape": {"dim": [{"size": "3"}]}}}, "dtype": {"type": "DT_INT32"}}}, {"name": "StatefulPartitionedCall/convolution_16/ExpandDims/dim", "op": "Const", "attr": {"value": {"tensor": {"dtype": "DT_INT32", "tensorShape": {}}}, "dtype": {"type": "DT_INT32"}}}, {"name": "StatefulPartitionedCall/convolution_16/ExpandDims_1", "op": "Const", "attr": {"dtype": {"type": "DT_FLOAT"}, "value": {"tensor": {"dtype": "DT_FLOAT", "tensorShape": {"dim": [{"size": "1"}, {"size": "3"}, {"size": "128"}, {"size": "256"}]}}}}}, {"name": "unknown_32", "op": "Const", "attr": {"dtype": {"type": "DT_FLOAT"}, "value": {"tensor": {"dtype": "DT_FLOAT", "tensorShape": {"dim": [{"size": "256"}]}}}}}, {"name": "StatefulPartitionedCall/transpose_52/perm", "op": "Const", "attr": {"value": {"tensor": {"dtype": "DT_INT32", "tensorShape": {"dim": [{"size": "3"}]}}}, "dtype": {"type": "DT_INT32"}}}, {"name": "StatefulPartitionedCall/Const_16", "op": "Const", "attr": {"dtype": {"type": "DT_INT32"}, "value": {"tensor": {"dtype": "DT_INT32", "tensorShape": {"dim": [{"size": "3"}, {"size": "2"}]}}}}}, {"name": "StatefulPartitionedCall/transpose_54/perm", "op": "Const", "attr": {"dtype": {"type": "DT_INT32"}, "value": {"tensor": {"dtype": "DT_INT32", "tensorShape": {"dim": [{"size": "3"}]}}}}}, {"name": "StatefulPartitionedCall/convolution_17/ExpandDims/dim", "op": "Const", "attr": {"dtype": {"type": "DT_INT32"}, "value": {"tensor": {"dtype": "DT_INT32", "tensorShape": {}}}}}, {"name": "StatefulPartitionedCall/convolution_17/ExpandDims_1", "op": "Const", "attr": {"value": {"tensor": {"dtype": "DT_FLOAT", "tensorShape": {"dim": [{"size": "1"}, {"size": "3"}, {"size": "256"}, {"size": "256"}]}}}, "dtype": {"type": "DT_FLOAT"}}}, {"name": "unknown_34", "op": "Const", "attr": {"dtype": {"type": "DT_FLOAT"}, "value": {"tensor": {"dtype": "DT_FLOAT", "tensorShape": {"dim": [{"size": "256"}]}}}}}, {"name": "StatefulPartitionedCall/transpose_55/perm", "op": "Const", "attr": {"value": {"tensor": {"dtype": "DT_INT32", "tensorShape": {"dim": [{"size": "3"}]}}}, "dtype": {"type": "DT_INT32"}}}, {"name": "StatefulPartitionedCall/Const_13", "op": "Const", "attr": {"value": {"tensor": {"dtype": "DT_INT32", "tensorShape": {"dim": [{"size": "3"}, {"size": "2"}]}}}, "dtype": {"type": "DT_INT32"}}}, {"name": "StatefulPartitionedCall/transpose_45/perm", "op": "Const", "attr": {"value": {"tensor": {"dtype": "DT_INT32", "tensorShape": {"dim": [{"size": "3"}]}}}, "dtype": {"type": "DT_INT32"}}}, {"name": "StatefulPartitionedCall/convolution_14/ExpandDims/dim", "op": "Const", "attr": {"dtype": {"type": "DT_INT32"}, "value": {"tensor": {"dtype": "DT_INT32", "tensorShape": {}}}}}, {"name": "StatefulPartitionedCall/convolution_14/ExpandDims_1", "op": "Const", "attr": {"dtype": {"type": "DT_FLOAT"}, "value": {"tensor": {"dtype": "DT_FLOAT", "tensorShape": {"dim": [{"size": "1"}, {"size": "3"}, {"size": "128"}, {"size": "128"}]}}}}}, {"name": "unknown_28", "op": "Const", "attr": {"value": {"tensor": {"dtype": "DT_FLOAT", "tensorShape": {"dim": [{"size": "128"}]}}}, "dtype": {"type": "DT_FLOAT"}}}, {"name": "StatefulPartitionedCall/transpose_46/perm", "op": "Const", "attr": {"value": {"tensor": {"dtype": "DT_INT32", "tensorShape": {"dim": [{"size": "3"}]}}}, "dtype": {"type": "DT_INT32"}}}, {"name": "StatefulPartitionedCall/Const_14", "op": "Const", "attr": {"dtype": {"type": "DT_INT32"}, "value": {"tensor": {"dtype": "DT_INT32", "tensorShape": {"dim": [{"size": "3"}, {"size": "2"}]}}}}}, {"name": "StatefulPartitionedCall/transpose_48/perm", "op": "Const", "attr": {"dtype": {"type": "DT_INT32"}, "value": {"tensor": {"dtype": "DT_INT32", "tensorShape": {"dim": [{"size": "3"}]}}}}}, {"name": "StatefulPartitionedCall/convolution_15/ExpandDims/dim", "op": "Const", "attr": {"dtype": {"type": "DT_INT32"}, "value": {"tensor": {"dtype": "DT_INT32", "tensorShape": {}}}}}, {"name": "StatefulPartitionedCall/convolution_15/ExpandDims_1", "op": "Const", "attr": {"value": {"tensor": {"dtype": "DT_FLOAT", "tensorShape": {"dim": [{"size": "1"}, {"size": "3"}, {"size": "128"}, {"size": "128"}]}}}, "dtype": {"type": "DT_FLOAT"}}}, {"name": "unknown_30", "op": "Const", "attr": {"value": {"tensor": {"dtype": "DT_FLOAT", "tensorShape": {"dim": [{"size": "128"}]}}}, "dtype": {"type": "DT_FLOAT"}}}, {"name": "StatefulPartitionedCall/transpose_49/perm", "op": "Const", "attr": {"value": {"tensor": {"dtype": "DT_INT32", "tensorShape": {"dim": [{"size": "3"}]}}}, "dtype": {"type": "DT_INT32"}}}, {"name": "StatefulPartitionedCall/Const_11", "op": "Const", "attr": {"value": {"tensor": {"dtype": "DT_INT32", "tensorShape": {"dim": [{"size": "3"}, {"size": "2"}]}}}, "dtype": {"type": "DT_INT32"}}}, {"name": "StatefulPartitionedCall/transpose_39/perm", "op": "Const", "attr": {"value": {"tensor": {"dtype": "DT_INT32", "tensorShape": {"dim": [{"size": "3"}]}}}, "dtype": {"type": "DT_INT32"}}}, {"name": "StatefulPartitionedCall/convolution_12/ExpandDims/dim", "op": "Const", "attr": {"value": {"tensor": {"dtype": "DT_INT32", "tensorShape": {}}}, "dtype": {"type": "DT_INT32"}}}, {"name": "StatefulPartitionedCall/convolution_12/ExpandDims_1", "op": "Const", "attr": {"value": {"tensor": {"dtype": "DT_FLOAT", "tensorShape": {"dim": [{"size": "1"}, {"size": "3"}, {"size": "128"}, {"size": "128"}]}}}, "dtype": {"type": "DT_FLOAT"}}}, {"name": "unknown_24", "op": "Const", "attr": {"value": {"tensor": {"dtype": "DT_FLOAT", "tensorShape": {"dim": [{"size": "128"}]}}}, "dtype": {"type": "DT_FLOAT"}}}, {"name": "StatefulPartitionedCall/transpose_40/perm", "op": "Const", "attr": {"value": {"tensor": {"dtype": "DT_INT32", "tensorShape": {"dim": [{"size": "3"}]}}}, "dtype": {"type": "DT_INT32"}}}, {"name": "StatefulPartitionedCall/Const_12", "op": "Const", "attr": {"value": {"tensor": {"dtype": "DT_INT32", "tensorShape": {"dim": [{"size": "3"}, {"size": "2"}]}}}, "dtype": {"type": "DT_INT32"}}}, {"name": "StatefulPartitionedCall/transpose_42/perm", "op": "Const", "attr": {"dtype": {"type": "DT_INT32"}, "value": {"tensor": {"dtype": "DT_INT32", "tensorShape": {"dim": [{"size": "3"}]}}}}}, {"name": "StatefulPartitionedCall/convolution_13/ExpandDims/dim", "op": "Const", "attr": {"value": {"tensor": {"dtype": "DT_INT32", "tensorShape": {}}}, "dtype": {"type": "DT_INT32"}}}, {"name": "StatefulPartitionedCall/convolution_13/ExpandDims_1", "op": "Const", "attr": {"dtype": {"type": "DT_FLOAT"}, "value": {"tensor": {"dtype": "DT_FLOAT", "tensorShape": {"dim": [{"size": "1"}, {"size": "3"}, {"size": "128"}, {"size": "128"}]}}}}}, {"name": "unknown_26", "op": "Const", "attr": {"value": {"tensor": {"dtype": "DT_FLOAT", "tensorShape": {"dim": [{"size": "128"}]}}}, "dtype": {"type": "DT_FLOAT"}}}, {"name": "StatefulPartitionedCall/transpose_43/perm", "op": "Const", "attr": {"value": {"tensor": {"dtype": "DT_INT32", "tensorShape": {"dim": [{"size": "3"}]}}}, "dtype": {"type": "DT_INT32"}}}, {"name": "StatefulPartitionedCall/Const_9", "op": "Const", "attr": {"value": {"tensor": {"dtype": "DT_INT32", "tensorShape": {"dim": [{"size": "3"}, {"size": "2"}]}}}, "dtype": {"type": "DT_INT32"}}}, {"name": "StatefulPartitionedCall/transpose_33/perm", "op": "Const", "attr": {"dtype": {"type": "DT_INT32"}, "value": {"tensor": {"dtype": "DT_INT32", "tensorShape": {"dim": [{"size": "3"}]}}}}}, {"name": "StatefulPartitionedCall/convolution_10/ExpandDims/dim", "op": "Const", "attr": {"value": {"tensor": {"dtype": "DT_INT32", "tensorShape": {}}}, "dtype": {"type": "DT_INT32"}}}, {"name": "StatefulPartitionedCall/convolution_10/ExpandDims_1", "op": "Const", "attr": {"value": {"tensor": {"dtype": "DT_FLOAT", "tensorShape": {"dim": [{"size": "1"}, {"size": "3"}, {"size": "128"}, {"size": "128"}]}}}, "dtype": {"type": "DT_FLOAT"}}}, {"name": "unknown_20", "op": "Const", "attr": {"dtype": {"type": "DT_FLOAT"}, "value": {"tensor": {"dtype": "DT_FLOAT", "tensorShape": {"dim": [{"size": "128"}]}}}}}, {"name": "StatefulPartitionedCall/transpose_34/perm", "op": "Const", "attr": {"value": {"tensor": {"dtype": "DT_INT32", "tensorShape": {"dim": [{"size": "3"}]}}}, "dtype": {"type": "DT_INT32"}}}, {"name": "StatefulPartitionedCall/Const_10", "op": "Const", "attr": {"value": {"tensor": {"dtype": "DT_INT32", "tensorShape": {"dim": [{"size": "3"}, {"size": "2"}]}}}, "dtype": {"type": "DT_INT32"}}}, {"name": "StatefulPartitionedCall/transpose_36/perm", "op": "Const", "attr": {"value": {"tensor": {"dtype": "DT_INT32", "tensorShape": {"dim": [{"size": "3"}]}}}, "dtype": {"type": "DT_INT32"}}}, {"name": "StatefulPartitionedCall/convolution_11/ExpandDims/dim", "op": "Const", "attr": {"dtype": {"type": "DT_INT32"}, "value": {"tensor": {"dtype": "DT_INT32", "tensorShape": {}}}}}, {"name": "StatefulPartitionedCall/convolution_11/ExpandDims_1", "op": "Const", "attr": {"dtype": {"type": "DT_FLOAT"}, "value": {"tensor": {"dtype": "DT_FLOAT", "tensorShape": {"dim": [{"size": "1"}, {"size": "3"}, {"size": "128"}, {"size": "128"}]}}}}}, {"name": "unknown_22", "op": "Const", "attr": {"value": {"tensor": {"dtype": "DT_FLOAT", "tensorShape": {"dim": [{"size": "128"}]}}}, "dtype": {"type": "DT_FLOAT"}}}, {"name": "StatefulPartitionedCall/transpose_37/perm", "op": "Const", "attr": {"dtype": {"type": "DT_INT32"}, "value": {"tensor": {"dtype": "DT_INT32", "tensorShape": {"dim": [{"size": "3"}]}}}}}, {"name": "StatefulPartitionedCall/Const_7", "op": "Const", "attr": {"value": {"tensor": {"dtype": "DT_INT32", "tensorShape": {"dim": [{"size": "3"}, {"size": "2"}]}}}, "dtype": {"type": "DT_INT32"}}}, {"name": "StatefulPartitionedCall/transpose_24/perm", "op": "Const", "attr": {"dtype": {"type": "DT_INT32"}, "value": {"tensor": {"dtype": "DT_INT32", "tensorShape": {"dim": [{"size": "3"}]}}}}}, {"name": "StatefulPartitionedCall/convolution_7/ExpandDims/dim", "op": "Const", "attr": {"dtype": {"type": "DT_INT32"}, "value": {"tensor": {"dtype": "DT_INT32", "tensorShape": {}}}}}, {"name": "StatefulPartitionedCall/convolution_7/ExpandDims_1", "op": "Const", "attr": {"dtype": {"type": "DT_FLOAT"}, "value": {"tensor": {"dtype": "DT_FLOAT", "tensorShape": {"dim": [{"size": "1"}, {"size": "3"}, {"size": "64"}, {"size": "128"}]}}}}}, {"name": "unknown_14", "op": "Const", "attr": {"value": {"tensor": {"dtype": "DT_FLOAT", "tensorShape": {"dim": [{"size": "128"}]}}}, "dtype": {"type": "DT_FLOAT"}}}, {"name": "StatefulPartitionedCall/transpose_25/perm", "op": "Const", "attr": {"dtype": {"type": "DT_INT32"}, "value": {"tensor": {"dtype": "DT_INT32", "tensorShape": {"dim": [{"size": "3"}]}}}}}, {"name": "StatefulPartitionedCall/Const_8", "op": "Const", "attr": {"dtype": {"type": "DT_INT32"}, "value": {"tensor": {"dtype": "DT_INT32", "tensorShape": {"dim": [{"size": "3"}, {"size": "2"}]}}}}}, {"name": "StatefulPartitionedCall/transpose_27/perm", "op": "Const", "attr": {"dtype": {"type": "DT_INT32"}, "value": {"tensor": {"dtype": "DT_INT32", "tensorShape": {"dim": [{"size": "3"}]}}}}}, {"name": "StatefulPartitionedCall/convolution_8/ExpandDims/dim", "op": "Const", "attr": {"value": {"tensor": {"dtype": "DT_INT32", "tensorShape": {}}}, "dtype": {"type": "DT_INT32"}}}, {"name": "StatefulPartitionedCall/convolution_8/ExpandDims_1", "op": "Const", "attr": {"value": {"tensor": {"dtype": "DT_FLOAT", "tensorShape": {"dim": [{"size": "1"}, {"size": "3"}, {"size": "128"}, {"size": "128"}]}}}, "dtype": {"type": "DT_FLOAT"}}}, {"name": "unknown_16", "op": "Const", "attr": {"value": {"tensor": {"dtype": "DT_FLOAT", "tensorShape": {"dim": [{"size": "128"}]}}}, "dtype": {"type": "DT_FLOAT"}}}, {"name": "StatefulPartitionedCall/transpose_28/perm", "op": "Const", "attr": {"value": {"tensor": {"dtype": "DT_INT32", "tensorShape": {"dim": [{"size": "3"}]}}}, "dtype": {"type": "DT_INT32"}}}, {"name": "StatefulPartitionedCall/Const_5", "op": "Const", "attr": {"dtype": {"type": "DT_INT32"}, "value": {"tensor": {"dtype": "DT_INT32", "tensorShape": {"dim": [{"size": "3"}, {"size": "2"}]}}}}}, {"name": "StatefulPartitionedCall/transpose_18/perm", "op": "Const", "attr": {"value": {"tensor": {"dtype": "DT_INT32", "tensorShape": {"dim": [{"size": "3"}]}}}, "dtype": {"type": "DT_INT32"}}}, {"name": "StatefulPartitionedCall/convolution_5/ExpandDims/dim", "op": "Const", "attr": {"value": {"tensor": {"dtype": "DT_INT32", "tensorShape": {}}}, "dtype": {"type": "DT_INT32"}}}, {"name": "StatefulPartitionedCall/convolution_5/ExpandDims_1", "op": "Const", "attr": {"dtype": {"type": "DT_FLOAT"}, "value": {"tensor": {"dtype": "DT_FLOAT", "tensorShape": {"dim": [{"size": "1"}, {"size": "3"}, {"size": "64"}, {"size": "64"}]}}}}}, {"name": "unknown_10", "op": "Const", "attr": {"dtype": {"type": "DT_FLOAT"}, "value": {"tensor": {"dtype": "DT_FLOAT", "tensorShape": {"dim": [{"size": "64"}]}}}}}, {"name": "StatefulPartitionedCall/transpose_19/perm", "op": "Const", "attr": {"dtype": {"type": "DT_INT32"}, "value": {"tensor": {"dtype": "DT_INT32", "tensorShape": {"dim": [{"size": "3"}]}}}}}, {"name": "StatefulPartitionedCall/Const_6", "op": "Const", "attr": {"value": {"tensor": {"dtype": "DT_INT32", "tensorShape": {"dim": [{"size": "3"}, {"size": "2"}]}}}, "dtype": {"type": "DT_INT32"}}}, {"name": "StatefulPartitionedCall/transpose_21/perm", "op": "Const", "attr": {"dtype": {"type": "DT_INT32"}, "value": {"tensor": {"dtype": "DT_INT32", "tensorShape": {"dim": [{"size": "3"}]}}}}}, {"name": "StatefulPartitionedCall/convolution_6/ExpandDims/dim", "op": "Const", "attr": {"dtype": {"type": "DT_INT32"}, "value": {"tensor": {"dtype": "DT_INT32", "tensorShape": {}}}}}, {"name": "StatefulPartitionedCall/convolution_6/ExpandDims_1", "op": "Const", "attr": {"value": {"tensor": {"dtype": "DT_FLOAT", "tensorShape": {"dim": [{"size": "1"}, {"size": "3"}, {"size": "64"}, {"size": "64"}]}}}, "dtype": {"type": "DT_FLOAT"}}}, {"name": "unknown_12", "op": "Const", "attr": {"value": {"tensor": {"dtype": "DT_FLOAT", "tensorShape": {"dim": [{"size": "64"}]}}}, "dtype": {"type": "DT_FLOAT"}}}, {"name": "StatefulPartitionedCall/transpose_22/perm", "op": "Const", "attr": {"dtype": {"type": "DT_INT32"}, "value": {"tensor": {"dtype": "DT_INT32", "tensorShape": {"dim": [{"size": "3"}]}}}}}, {"name": "StatefulPartitionedCall/Const_3", "op": "Const", "attr": {"dtype": {"type": "DT_INT32"}, "value": {"tensor": {"dtype": "DT_INT32", "tensorShape": {"dim": [{"size": "3"}, {"size": "2"}]}}}}}, {"name": "StatefulPartitionedCall/transpose_12/perm", "op": "Const", "attr": {"value": {"tensor": {"dtype": "DT_INT32", "tensorShape": {"dim": [{"size": "3"}]}}}, "dtype": {"type": "DT_INT32"}}}, {"name": "StatefulPartitionedCall/convolution_3/ExpandDims/dim", "op": "Const", "attr": {"dtype": {"type": "DT_INT32"}, "value": {"tensor": {"dtype": "DT_INT32", "tensorShape": {}}}}}, {"name": "StatefulPartitionedCall/convolution_3/ExpandDims_1", "op": "Const", "attr": {"value": {"tensor": {"dtype": "DT_FLOAT", "tensorShape": {"dim": [{"size": "1"}, {"size": "3"}, {"size": "64"}, {"size": "64"}]}}}, "dtype": {"type": "DT_FLOAT"}}}, {"name": "unknown_6", "op": "Const", "attr": {"value": {"tensor": {"dtype": "DT_FLOAT", "tensorShape": {"dim": [{"size": "64"}]}}}, "dtype": {"type": "DT_FLOAT"}}}, {"name": "StatefulPartitionedCall/transpose_13/perm", "op": "Const", "attr": {"dtype": {"type": "DT_INT32"}, "value": {"tensor": {"dtype": "DT_INT32", "tensorShape": {"dim": [{"size": "3"}]}}}}}, {"name": "StatefulPartitionedCall/Const_4", "op": "Const", "attr": {"value": {"tensor": {"dtype": "DT_INT32", "tensorShape": {"dim": [{"size": "3"}, {"size": "2"}]}}}, "dtype": {"type": "DT_INT32"}}}, {"name": "StatefulPartitionedCall/transpose_15/perm", "op": "Const", "attr": {"value": {"tensor": {"dtype": "DT_INT32", "tensorShape": {"dim": [{"size": "3"}]}}}, "dtype": {"type": "DT_INT32"}}}, {"name": "StatefulPartitionedCall/convolution_4/ExpandDims/dim", "op": "Const", "attr": {"dtype": {"type": "DT_INT32"}, "value": {"tensor": {"dtype": "DT_INT32", "tensorShape": {}}}}}, {"name": "StatefulPartitionedCall/convolution_4/ExpandDims_1", "op": "Const", "attr": {"dtype": {"type": "DT_FLOAT"}, "value": {"tensor": {"dtype": "DT_FLOAT", "tensorShape": {"dim": [{"size": "1"}, {"size": "3"}, {"size": "64"}, {"size": "64"}]}}}}}, {"name": "unknown_8", "op": "Const", "attr": {"dtype": {"type": "DT_FLOAT"}, "value": {"tensor": {"dtype": "DT_FLOAT", "tensorShape": {"dim": [{"size": "64"}]}}}}}, {"name": "StatefulPartitionedCall/transpose_16/perm", "op": "Const", "attr": {"value": {"tensor": {"dtype": "DT_INT32", "tensorShape": {"dim": [{"size": "3"}]}}}, "dtype": {"type": "DT_INT32"}}}, {"name": "StatefulPartitionedCall/Const_1", "op": "Const", "attr": {"value": {"tensor": {"dtype": "DT_INT32", "tensorShape": {"dim": [{"size": "3"}, {"size": "2"}]}}}, "dtype": {"type": "DT_INT32"}}}, {"name": "StatefulPartitionedCall/transpose_6/perm", "op": "Const", "attr": {"value": {"tensor": {"dtype": "DT_INT32", "tensorShape": {"dim": [{"size": "3"}]}}}, "dtype": {"type": "DT_INT32"}}}, {"name": "StatefulPartitionedCall/convolution_1/ExpandDims/dim", "op": "Const", "attr": {"dtype": {"type": "DT_INT32"}, "value": {"tensor": {"dtype": "DT_INT32", "tensorShape": {}}}}}, {"name": "StatefulPartitionedCall/convolution_1/ExpandDims_1", "op": "Const", "attr": {"value": {"tensor": {"dtype": "DT_FLOAT", "tensorShape": {"dim": [{"size": "1"}, {"size": "3"}, {"size": "64"}, {"size": "64"}]}}}, "dtype": {"type": "DT_FLOAT"}}}, {"name": "unknown_2", "op": "Const", "attr": {"dtype": {"type": "DT_FLOAT"}, "value": {"tensor": {"dtype": "DT_FLOAT", "tensorShape": {"dim": [{"size": "64"}]}}}}}, {"name": "StatefulPartitionedCall/transpose_7/perm", "op": "Const", "attr": {"value": {"tensor": {"dtype": "DT_INT32", "tensorShape": {"dim": [{"size": "3"}]}}}, "dtype": {"type": "DT_INT32"}}}, {"name": "StatefulPartitionedCall/Const_2", "op": "Const", "attr": {"value": {"tensor": {"dtype": "DT_INT32", "tensorShape": {"dim": [{"size": "3"}, {"size": "2"}]}}}, "dtype": {"type": "DT_INT32"}}}, {"name": "StatefulPartitionedCall/transpose_9/perm", "op": "Const", "attr": {"value": {"tensor": {"dtype": "DT_INT32", "tensorShape": {"dim": [{"size": "3"}]}}}, "dtype": {"type": "DT_INT32"}}}, {"name": "StatefulPartitionedCall/convolution_2/ExpandDims/dim", "op": "Const", "attr": {"dtype": {"type": "DT_INT32"}, "value": {"tensor": {"dtype": "DT_INT32", "tensorShape": {}}}}}, {"name": "StatefulPartitionedCall/convolution_2/ExpandDims_1", "op": "Const", "attr": {"dtype": {"type": "DT_FLOAT"}, "value": {"tensor": {"dtype": "DT_FLOAT", "tensorShape": {"dim": [{"size": "1"}, {"size": "3"}, {"size": "64"}, {"size": "64"}]}}}}}, {"name": "unknown_4", "op": "Const", "attr": {"value": {"tensor": {"dtype": "DT_FLOAT", "tensorShape": {"dim": [{"size": "64"}]}}}, "dtype": {"type": "DT_FLOAT"}}}, {"name": "StatefulPartitionedCall/transpose_10/perm", "op": "Const", "attr": {"value": {"tensor": {"dtype": "DT_INT32", "tensorShape": {"dim": [{"size": "3"}]}}}, "dtype": {"type": "DT_INT32"}}}, {"name": "StatefulPartitionedCall/Const", "op": "Const", "attr": {"dtype": {"type": "DT_INT32"}, "value": {"tensor": {"dtype": "DT_INT32", "tensorShape": {"dim": [{"size": "3"}, {"size": "2"}]}}}}}, {"name": "StatefulPartitionedCall/transpose_1/perm", "op": "Const", "attr": {"dtype": {"type": "DT_INT32"}, "value": {"tensor": {"dtype": "DT_INT32", "tensorShape": {"dim": [{"size": "3"}]}}}}}, {"name": "StatefulPartitionedCall/convolution/ExpandDims/dim", "op": "Const", "attr": {"dtype": {"type": "DT_INT32"}, "value": {"tensor": {"dtype": "DT_INT32", "tensorShape": {}}}}}, {"name": "StatefulPartitionedCall/convolution/ExpandDims_1", "op": "Const", "attr": {"value": {"tensor": {"dtype": "DT_FLOAT", "tensorShape": {"dim": [{"size": "1"}, {"size": "7"}, {"size": "1"}, {"size": "64"}]}}}, "dtype": {"type": "DT_FLOAT"}}}, {"name": "unknown_0", "op": "Const", "attr": {"value": {"tensor": {"dtype": "DT_FLOAT", "tensorShape": {"dim": [{"size": "64"}]}}}, "dtype": {"type": "DT_FLOAT"}}}, {"name": "StatefulPartitionedCall/transpose_2/perm", "op": "Const", "attr": {"dtype": {"type": "DT_INT32"}, "value": {"tensor": {"dtype": "DT_INT32", "tensorShape": {"dim": [{"size": "3"}]}}}}}, {"name": "StatefulPartitionedCall/PadV2/paddings", "op": "Const", "attr": {"dtype": {"type": "DT_INT32"}, "value": {"tensor": {"dtype": "DT_INT32", "tensorShape": {"dim": [{"size": "3"}, {"size": "2"}]}}}}}, {"name": "StatefulPartitionedCall/PadV2/constant_values", "op": "Const", "attr": {"value": {"tensor": {"dtype": "DT_FLOAT", "tensorShape": {}}}, "dtype": {"type": "DT_FLOAT"}}}, {"name": "StatefulPartitionedCall/transpose_3/perm", "op": "Const", "attr": {"value": {"tensor": {"dtype": "DT_INT32", "tensorShape": {"dim": [{"size": "3"}]}}}, "dtype": {"type": "DT_INT32"}}}, {"name": "StatefulPartitionedCall/MaxPool1d/ExpandDims/dim", "op": "Const", "attr": {"dtype": {"type": "DT_INT32"}, "value": {"tensor": {"dtype": "DT_INT32", "tensorShape": {}}}}}, {"name": "StatefulPartitionedCall/transpose_4/perm", "op": "Const", "attr": {"dtype": {"type": "DT_INT32"}, "value": {"tensor": {"dtype": "DT_INT32", "tensorShape": {"dim": [{"size": "3"}]}}}}}, {"name": "StatefulPartitionedCall/transpose_30/perm", "op": "Const", "attr": {"value": {"tensor": {"dtype": "DT_INT32", "tensorShape": {"dim": [{"size": "3"}]}}}, "dtype": {"type": "DT_INT32"}}}, {"name": "StatefulPartitionedCall/convolution_9/ExpandDims/dim", "op": "Const", "attr": {"dtype": {"type": "DT_INT32"}, "value": {"tensor": {"dtype": "DT_INT32", "tensorShape": {}}}}}, {"name": "StatefulPartitionedCall/convolution_9/ExpandDims_1", "op": "Const", "attr": {"value": {"tensor": {"dtype": "DT_FLOAT", "tensorShape": {"dim": [{"size": "1"}, {"size": "1"}, {"size": "64"}, {"size": "128"}]}}}, "dtype": {"type": "DT_FLOAT"}}}, {"name": "unknown_18", "op": "Const", "attr": {"dtype": {"type": "DT_FLOAT"}, "value": {"tensor": {"dtype": "DT_FLOAT", "tensorShape": {"dim": [{"size": "128"}]}}}}}, {"name": "StatefulPartitionedCall/transpose_31/perm", "op": "Const", "attr": {"value": {"tensor": {"dtype": "DT_INT32", "tensorShape": {"dim": [{"size": "3"}]}}}, "dtype": {"type": "DT_INT32"}}}, {"name": "StatefulPartitionedCall/transpose_57/perm", "op": "Const", "attr": {"value": {"tensor": {"dtype": "DT_INT32", "tensorShape": {"dim": [{"size": "3"}]}}}, "dtype": {"type": "DT_INT32"}}}, {"name": "StatefulPartitionedCall/convolution_18/ExpandDims/dim", "op": "Const", "attr": {"dtype": {"type": "DT_INT32"}, "value": {"tensor": {"dtype": "DT_INT32", "tensorShape": {}}}}}, {"name": "StatefulPartitionedCall/convolution_18/ExpandDims_1", "op": "Const", "attr": {"dtype": {"type": "DT_FLOAT"}, "value": {"tensor": {"dtype": "DT_FLOAT", "tensorShape": {"dim": [{"size": "1"}, {"size": "1"}, {"size": "128"}, {"size": "256"}]}}}}}, {"name": "unknown_36", "op": "Const", "attr": {"value": {"tensor": {"dtype": "DT_FLOAT", "tensorShape": {"dim": [{"size": "256"}]}}}, "dtype": {"type": "DT_FLOAT"}}}, {"name": "StatefulPartitionedCall/transpose_58/perm", "op": "Const", "attr": {"value": {"tensor": {"dtype": "DT_INT32", "tensorShape": {"dim": [{"size": "3"}]}}}, "dtype": {"type": "DT_INT32"}}}, {"name": "StatefulPartitionedCall/transpose_96/perm", "op": "Const", "attr": {"value": {"tensor": {"dtype": "DT_INT32", "tensorShape": {"dim": [{"size": "3"}]}}}, "dtype": {"type": "DT_INT32"}}}, {"name": "StatefulPartitionedCall/convolution_31/ExpandDims/dim", "op": "Const", "attr": {"value": {"tensor": {"dtype": "DT_INT32", "tensorShape": {}}}, "dtype": {"type": "DT_INT32"}}}, {"name": "StatefulPartitionedCall/convolution_31/ExpandDims_1", "op": "Const", "attr": {"dtype": {"type": "DT_FLOAT"}, "value": {"tensor": {"dtype": "DT_FLOAT", "tensorShape": {"dim": [{"size": "1"}, {"size": "1"}, {"size": "256"}, {"size": "512"}]}}}}}, {"name": "unknown_62", "op": "Const", "attr": {"dtype": {"type": "DT_FLOAT"}, "value": {"tensor": {"dtype": "DT_FLOAT", "tensorShape": {"dim": [{"size": "512"}]}}}}}, {"name": "StatefulPartitionedCall/transpose_97/perm", "op": "Const", "attr": {"dtype": {"type": "DT_INT32"}, "value": {"tensor": {"dtype": "DT_INT32", "tensorShape": {"dim": [{"size": "3"}]}}}}}, {"name": "ConstantFolding/StatefulPartitionedCall/split_36-folded-1", "op": "Const", "attr": {"dtype": {"type": "DT_INT32"}, "value": {"tensor": {"dtype": "DT_INT32", "tensorShape": {"dim": [{"size": "1"}]}}}}}, {"name": "StatefulPartitionedCall/flatten/Const", "op": "Const", "attr": {"dtype": {"type": "DT_INT32"}, "value": {"tensor": {"dtype": "DT_INT32", "tensorShape": {"dim": [{"size": "2"}]}}}}}, {"name": "StatefulPartitionedCall/transpose_110", "op": "Const", "attr": {"dtype": {"type": "DT_FLOAT"}, "value": {"tensor": {"dtype": "DT_FLOAT", "tensorShape": {"dim": [{"size": "512"}, {"size": "5"}]}}}}}, {"name": "StatefulPartitionedCall/mul_1", "op": "Const", "attr": {"dtype": {"type": "DT_FLOAT"}, "value": {"tensor": {"dtype": "DT_FLOAT", "tensorShape": {"dim": [{"size": "5"}]}}}}}, {"name": "StatefulPartitionedCall/assert_equal_1/Assert/AssertGuard/pivot_t/_82", "op": "Const", "attr": {"dtype": {"type": "DT_BOOL"}, "value": {"tensor": {"dtype": "DT_BOOL", "tensorShape": {}}}}}, {"name": "StatefulPartitionedCall/LogicalAnd", "op": "Const", "attr": {"dtype": {"type": "DT_BOOL"}, "value": {"tensor": {"dtype": "DT_BOOL", "tensorShape": {}}}}}, {"name": "StatefulPartitionedCall/assert_equal_1/y", "op": "Const", "attr": {"value": {"tensor": {"dtype": "DT_BOOL", "tensorShape": {}}}, "dtype": {"type": "DT_BOOL"}}}, {"name": "StatefulPartitionedCall/assert_equal_1/All", "op": "Const", "attr": {"value": {"tensor": {"dtype": "DT_BOOL", "tensorShape": {}}}, "dtype": {"type": "DT_BOOL"}}}, {"name": "input_1", "op": "Placeholder", "attr": {"dtype": {"type": "DT_FLOAT"}, "shape": {"shape": {"dim": [{"size": "1"}, {"size": "1"}, {"size": "176"}]}}}}, {"name": "StatefulPartitionedCall/assert_equal_1/Assert/AssertGuard/StatefulPartitionedCall/assert_equal_1/All/_83", "op": "Switch", "input": ["StatefulPartitionedCall/assert_equal_1/All", "StatefulPartitionedCall/assert_equal_1/All"], "attr": {"T": {"type": "DT_BOOL"}}}, {"name": "StatefulPartitionedCall/assert_equal_1/Assert/AssertGuard/StatefulPartitionedCall/LogicalAnd/_84", "op": "Switch", "input": ["StatefulPartitionedCall/LogicalAnd", "StatefulPartitionedCall/assert_equal_1/All"], "attr": {"T": {"type": "DT_BOOL"}}}, {"name": "StatefulPartitionedCall/assert_equal_1/Assert/AssertGuard/switch_pred/_80", "op": "Switch", "input": ["StatefulPartitionedCall/assert_equal_1/All", "StatefulPartitionedCall/assert_equal_1/All"], "attr": {"T": {"type": "DT_BOOL"}}}, {"name": "StatefulPartitionedCall/assert_equal_1/Assert/AssertGuard/StatefulPartitionedCall/assert_equal_1/y/_85", "op": "Switch", "input": ["StatefulPartitionedCall/assert_equal_1/y", "StatefulPartitionedCall/assert_equal_1/All"], "attr": {"T": {"type": "DT_BOOL"}}}, {"name": "StatefulPartitionedCall/Pad", "op": "Pad", "input": ["input_1", "StatefulPartitionedCall/Const"], "attr": {"T": {"type": "DT_FLOAT"}, "Tpaddings": {"type": "DT_INT32"}}}, {"name": "StatefulPartitionedCall/assert_equal_1/Assert/AssertGuard/pivot_f/_81", "op": "Identity", "input": ["StatefulPartitionedCall/assert_equal_1/Assert/AssertGuard/switch_pred/_80"], "attr": {"T": {"type": "DT_BOOL"}}}, {"name": "StatefulPartitionedCall/transpose_1", "op": "Transpose", "input": ["StatefulPartitionedCall/Pad", "StatefulPartitionedCall/transpose_1/perm"], "attr": {"T": {"type": "DT_FLOAT"}, "Tperm": {"type": "DT_INT32"}}}, {"name": "StatefulPartitionedCall/assert_equal_1/Assert/AssertGuard/else/_79/assert_equal_1/Assert/AssertGuard/Assert/data_0", "op": "Const", "input": ["^StatefulPartitionedCall/assert_equal_1/Assert/AssertGuard/pivot_f/_81"], "attr": {"value": {"tensor": {"dtype": "DT_STRING", "tensorShape": {}}}, "dtype": {"type": "DT_STRING"}}}, {"name": "StatefulPartitionedCall/assert_equal_1/Assert/AssertGuard/else/_79/assert_equal_1/Assert/AssertGuard/Assert/data_1", "op": "Const", "input": ["^StatefulPartitionedCall/assert_equal_1/Assert/AssertGuard/pivot_f/_81"], "attr": {"dtype": {"type": "DT_STRING"}, "value": {"tensor": {"dtype": "DT_STRING", "tensorShape": {}}}}}, {"name": "StatefulPartitionedCall/assert_equal_1/Assert/AssertGuard/else/_79/assert_equal_1/Assert/AssertGuard/Assert/data_2", "op": "Const", "input": ["^StatefulPartitionedCall/assert_equal_1/Assert/AssertGuard/pivot_f/_81"], "attr": {"value": {"tensor": {"dtype": "DT_STRING", "tensorShape": {}}}, "dtype": {"type": "DT_STRING"}}}, {"name": "StatefulPartitionedCall/assert_equal_1/Assert/AssertGuard/else/_79/assert_equal_1/Assert/AssertGuard/Assert/data_4", "op": "Const", "input": ["^StatefulPartitionedCall/assert_equal_1/Assert/AssertGuard/pivot_f/_81"], "attr": {"dtype": {"type": "DT_STRING"}, "value": {"tensor": {"dtype": "DT_STRING", "tensorShape": {}}}}}, {"name": "StatefulPartitionedCall/convolution/ExpandDims", "op": "ExpandDims", "input": ["StatefulPartitionedCall/transpose_1", "StatefulPartitionedCall/convolution/ExpandDims/dim"], "attr": {"T": {"type": "DT_FLOAT"}, "Tdim": {"type": "DT_INT32"}}}, {"name": "StatefulPartitionedCall/assert_equal_1/Assert/AssertGuard/else/_79/assert_equal_1/Assert/AssertGuard/Assert", "op": "Assert", "input": ["StatefulPartitionedCall/assert_equal_1/Assert/AssertGuard/StatefulPartitionedCall/assert_equal_1/All/_83", "StatefulPartitionedCall/assert_equal_1/Assert/AssertGuard/else/_79/assert_equal_1/Assert/AssertGuard/Assert/data_0", "StatefulPartitionedCall/assert_equal_1/Assert/AssertGuard/else/_79/assert_equal_1/Assert/AssertGuard/Assert/data_1", "StatefulPartitionedCall/assert_equal_1/Assert/AssertGuard/else/_79/assert_equal_1/Assert/AssertGuard/Assert/data_2", "StatefulPartitionedCall/assert_equal_1/Assert/AssertGuard/StatefulPartitionedCall/LogicalAnd/_84", "StatefulPartitionedCall/assert_equal_1/Assert/AssertGuard/else/_79/assert_equal_1/Assert/AssertGuard/Assert/data_4", "StatefulPartitionedCall/assert_equal_1/Assert/AssertGuard/StatefulPartitionedCall/assert_equal_1/y/_85"], "attr": {"T": {"list": {"type": ["DT_STRING", "DT_STRING", "DT_STRING", "DT_BOOL", "DT_STRING", "DT_BOOL"]}}, "summarize": {"i": "3"}}}, {"name": "StatefulPartitionedCall/convolution", "op": "Conv2D", "input": ["StatefulPartitionedCall/convolution/ExpandDims", "StatefulPartitionedCall/convolution/ExpandDims_1"], "device": "/device:CPU:0", "attr": {"padding": {"s": "VkFMSUQ="}, "data_format": {"s": "TkhXQw=="}, "use_cudnn_on_gpu": {"b": true}, "strides": {"list": {"i": ["1", "1", "2", "1"]}}, "dilations": {"list": {"i": ["1", "1", "1", "1"]}}, "explicit_paddings": {"list": {}}, "T": {"type": "DT_FLOAT"}}}, {"name": "StatefulPartitionedCall/assert_equal_1/Assert/AssertGuard/branch_executed/_87", "op": "Merge", "input": ["StatefulPartitionedCall/assert_equal_1/Assert/AssertGuard/pivot_t/_82", "StatefulPartitionedCall/assert_equal_1/Assert/AssertGuard/pivot_f/_81", "^StatefulPartitionedCall/assert_equal_1/Assert/AssertGuard/else/_79/assert_equal_1/Assert/AssertGuard/Assert"], "attr": {"N": {"i": "2"}, "T": {"type": "DT_BOOL"}}}, {"name": "StatefulPartitionedCall/convolution/Squeeze", "op": "Squeeze", "input": ["StatefulPartitionedCall/convolution"], "attr": {"T": {"type": "DT_FLOAT"}, "squeeze_dims": {"list": {"i": ["-3"]}}}}, {"name": "StatefulPartitionedCall/Add", "op": "AddV2", "input": ["StatefulPartitionedCall/convolution/Squeeze", "unknown_0"], "attr": {"T": {"type": "DT_FLOAT"}}}, {"name": "StatefulPartitionedCall/transpose_2", "op": "Transpose", "input": ["StatefulPartitionedCall/Add", "StatefulPartitionedCall/transpose_2/perm"], "attr": {"T": {"type": "DT_FLOAT"}, "Tperm": {"type": "DT_INT32"}}}, {"name": "StatefulPartitionedCall/onnx_tf_prefix_Relu_1", "op": "Relu", "input": ["StatefulPartitionedCall/transpose_2"], "attr": {"T": {"type": "DT_FLOAT"}}}, {"name": "StatefulPartitionedCall/PadV2", "op": "PadV2", "input": ["StatefulPartitionedCall/onnx_tf_prefix_Relu_1", "StatefulPartitionedCall/PadV2/paddings", "StatefulPartitionedCall/PadV2/constant_values"], "attr": {"T": {"type": "DT_FLOAT"}, "Tpaddings": {"type": "DT_INT32"}}}, {"name": "StatefulPartitionedCall/transpose_3", "op": "Transpose", "input": ["StatefulPartitionedCall/PadV2", "StatefulPartitionedCall/transpose_3/perm"], "attr": {"Tperm": {"type": "DT_INT32"}, "T": {"type": "DT_FLOAT"}}}, {"name": "StatefulPartitionedCall/MaxPool1d/ExpandDims", "op": "ExpandDims", "input": ["StatefulPartitionedCall/transpose_3", "StatefulPartitionedCall/MaxPool1d/ExpandDims/dim"], "attr": {"Tdim": {"type": "DT_INT32"}, "T": {"type": "DT_FLOAT"}}}, {"name": "StatefulPartitionedCall/MaxPool1d", "op": "MaxPool", "input": ["StatefulPartitionedCall/MaxPool1d/ExpandDims"], "attr": {"data_format": {"s": "TkhXQw=="}, "T": {"type": "DT_FLOAT"}, "explicit_paddings": {"list": {}}, "strides": {"list": {"i": ["1", "1", "2", "1"]}}, "padding": {"s": "VkFMSUQ="}, "ksize": {"list": {"i": ["1", "1", "3", "1"]}}}}, {"name": "StatefulPartitionedCall/MaxPool1d/Squeeze", "op": "Squeeze", "input": ["StatefulPartitionedCall/MaxPool1d"], "attr": {"squeeze_dims": {"list": {"i": ["1"]}}, "T": {"type": "DT_FLOAT"}}}, {"name": "StatefulPartitionedCall/transpose_4", "op": "Transpose", "input": ["StatefulPartitionedCall/MaxPool1d/Squeeze", "StatefulPartitionedCall/transpose_4/perm"], "attr": {"Tperm": {"type": "DT_INT32"}, "T": {"type": "DT_FLOAT"}}}, {"name": "StatefulPartitionedCall/Pad_1", "op": "Pad", "input": ["StatefulPartitionedCall/transpose_4", "StatefulPartitionedCall/Const_1"], "attr": {"Tpaddings": {"type": "DT_INT32"}, "T": {"type": "DT_FLOAT"}}}, {"name": "StatefulPartitionedCall/transpose_6", "op": "Transpose", "input": ["StatefulPartitionedCall/Pad_1", "StatefulPartitionedCall/transpose_6/perm"], "attr": {"T": {"type": "DT_FLOAT"}, "Tperm": {"type": "DT_INT32"}}}, {"name": "StatefulPartitionedCall/convolution_1/ExpandDims", "op": "ExpandDims", "input": ["StatefulPartitionedCall/transpose_6", "StatefulPartitionedCall/convolution_1/ExpandDims/dim"], "attr": {"T": {"type": "DT_FLOAT"}, "Tdim": {"type": "DT_INT32"}}}, {"name": "StatefulPartitionedCall/convolution_1", "op": "Conv2D", "input": ["StatefulPartitionedCall/convolution_1/ExpandDims", "StatefulPartitionedCall/convolution_1/ExpandDims_1"], "device": "/device:CPU:0", "attr": {"use_cudnn_on_gpu": {"b": true}, "padding": {"s": "VkFMSUQ="}, "T": {"type": "DT_FLOAT"}, "strides": {"list": {"i": ["1", "1", "1", "1"]}}, "data_format": {"s": "TkhXQw=="}, "dilations": {"list": {"i": ["1", "1", "1", "1"]}}, "explicit_paddings": {"list": {}}}}, {"name": "StatefulPartitionedCall/convolution_1/Squeeze", "op": "Squeeze", "input": ["StatefulPartitionedCall/convolution_1"], "attr": {"squeeze_dims": {"list": {"i": ["-3"]}}, "T": {"type": "DT_FLOAT"}}}, {"name": "StatefulPartitionedCall/Add_1", "op": "AddV2", "input": ["StatefulPartitionedCall/convolution_1/Squeeze", "unknown_2"], "attr": {"T": {"type": "DT_FLOAT"}}}, {"name": "StatefulPartitionedCall/transpose_7", "op": "Transpose", "input": ["StatefulPartitionedCall/Add_1", "StatefulPartitionedCall/transpose_7/perm"], "attr": {"T": {"type": "DT_FLOAT"}, "Tperm": {"type": "DT_INT32"}}}, {"name": "StatefulPartitionedCall/onnx_tf_prefix_Relu_4", "op": "Relu", "input": ["StatefulPartitionedCall/transpose_7"], "attr": {"T": {"type": "DT_FLOAT"}}}, {"name": "StatefulPartitionedCall/Pad_2", "op": "Pad", "input": ["StatefulPartitionedCall/onnx_tf_prefix_Relu_4", "StatefulPartitionedCall/Const_2"], "attr": {"Tpaddings": {"type": "DT_INT32"}, "T": {"type": "DT_FLOAT"}}}, {"name": "StatefulPartitionedCall/transpose_9", "op": "Transpose", "input": ["StatefulPartitionedCall/Pad_2", "StatefulPartitionedCall/transpose_9/perm"], "attr": {"T": {"type": "DT_FLOAT"}, "Tperm": {"type": "DT_INT32"}}}, {"name": "StatefulPartitionedCall/convolution_2/ExpandDims", "op": "ExpandDims", "input": ["StatefulPartitionedCall/transpose_9", "StatefulPartitionedCall/convolution_2/ExpandDims/dim"], "attr": {"Tdim": {"type": "DT_INT32"}, "T": {"type": "DT_FLOAT"}}}, {"name": "StatefulPartitionedCall/convolution_2", "op": "Conv2D", "input": ["StatefulPartitionedCall/convolution_2/ExpandDims", "StatefulPartitionedCall/convolution_2/ExpandDims_1"], "device": "/device:CPU:0", "attr": {"data_format": {"s": "TkhXQw=="}, "padding": {"s": "VkFMSUQ="}, "explicit_paddings": {"list": {}}, "strides": {"list": {"i": ["1", "1", "1", "1"]}}, "use_cudnn_on_gpu": {"b": true}, "T": {"type": "DT_FLOAT"}, "dilations": {"list": {"i": ["1", "1", "1", "1"]}}}}, {"name": "StatefulPartitionedCall/convolution_2/Squeeze", "op": "Squeeze", "input": ["StatefulPartitionedCall/convolution_2"], "attr": {"T": {"type": "DT_FLOAT"}, "squeeze_dims": {"list": {"i": ["-3"]}}}}, {"name": "StatefulPartitionedCall/Add_2", "op": "AddV2", "input": ["StatefulPartitionedCall/convolution_2/Squeeze", "unknown_4"], "attr": {"T": {"type": "DT_FLOAT"}}}, {"name": "StatefulPartitionedCall/transpose_10", "op": "Transpose", "input": ["StatefulPartitionedCall/Add_2", "StatefulPartitionedCall/transpose_10/perm"], "attr": {"T": {"type": "DT_FLOAT"}, "Tperm": {"type": "DT_INT32"}}}, {"name": "StatefulPartitionedCall/onnx_tf_prefix_Add_6", "op": "AddV2", "input": ["StatefulPartitionedCall/transpose_10", "StatefulPartitionedCall/transpose_4"], "attr": {"T": {"type": "DT_FLOAT"}}}, {"name": "StatefulPartitionedCall/onnx_tf_prefix_Relu_7", "op": "Relu", "input": ["StatefulPartitionedCall/onnx_tf_prefix_Add_6"], "attr": {"T": {"type": "DT_FLOAT"}}}, {"name": "StatefulPartitionedCall/Pad_3", "op": "Pad", "input": ["StatefulPartitionedCall/onnx_tf_prefix_Relu_7", "StatefulPartitionedCall/Const_3"], "attr": {"T": {"type": "DT_FLOAT"}, "Tpaddings": {"type": "DT_INT32"}}}, {"name": "StatefulPartitionedCall/transpose_12", "op": "Transpose", "input": ["StatefulPartitionedCall/Pad_3", "StatefulPartitionedCall/transpose_12/perm"], "attr": {"Tperm": {"type": "DT_INT32"}, "T": {"type": "DT_FLOAT"}}}, {"name": "StatefulPartitionedCall/convolution_3/ExpandDims", "op": "ExpandDims", "input": ["StatefulPartitionedCall/transpose_12", "StatefulPartitionedCall/convolution_3/ExpandDims/dim"], "attr": {"Tdim": {"type": "DT_INT32"}, "T": {"type": "DT_FLOAT"}}}, {"name": "StatefulPartitionedCall/convolution_3", "op": "Conv2D", "input": ["StatefulPartitionedCall/convolution_3/ExpandDims", "StatefulPartitionedCall/convolution_3/ExpandDims_1"], "device": "/device:CPU:0", "attr": {"use_cudnn_on_gpu": {"b": true}, "explicit_paddings": {"list": {}}, "dilations": {"list": {"i": ["1", "1", "1", "1"]}}, "padding": {"s": "VkFMSUQ="}, "strides": {"list": {"i": ["1", "1", "1", "1"]}}, "data_format": {"s": "TkhXQw=="}, "T": {"type": "DT_FLOAT"}}}, {"name": "StatefulPartitionedCall/convolution_3/Squeeze", "op": "Squeeze", "input": ["StatefulPartitionedCall/convolution_3"], "attr": {"T": {"type": "DT_FLOAT"}, "squeeze_dims": {"list": {"i": ["-3"]}}}}, {"name": "StatefulPartitionedCall/Add_3", "op": "AddV2", "input": ["StatefulPartitionedCall/convolution_3/Squeeze", "unknown_6"], "attr": {"T": {"type": "DT_FLOAT"}}}, {"name": "StatefulPartitionedCall/transpose_13", "op": "Transpose", "input": ["StatefulPartitionedCall/Add_3", "StatefulPartitionedCall/transpose_13/perm"], "attr": {"Tperm": {"type": "DT_INT32"}, "T": {"type": "DT_FLOAT"}}}, {"name": "StatefulPartitionedCall/onnx_tf_prefix_Relu_9", "op": "Relu", "input": ["StatefulPartitionedCall/transpose_13"], "attr": {"T": {"type": "DT_FLOAT"}}}, {"name": "StatefulPartitionedCall/Pad_4", "op": "Pad", "input": ["StatefulPartitionedCall/onnx_tf_prefix_Relu_9", "StatefulPartitionedCall/Const_4"], "attr": {"T": {"type": "DT_FLOAT"}, "Tpaddings": {"type": "DT_INT32"}}}, {"name": "StatefulPartitionedCall/transpose_15", "op": "Transpose", "input": ["StatefulPartitionedCall/Pad_4", "StatefulPartitionedCall/transpose_15/perm"], "attr": {"T": {"type": "DT_FLOAT"}, "Tperm": {"type": "DT_INT32"}}}, {"name": "StatefulPartitionedCall/convolution_4/ExpandDims", "op": "ExpandDims", "input": ["StatefulPartitionedCall/transpose_15", "StatefulPartitionedCall/convolution_4/ExpandDims/dim"], "attr": {"T": {"type": "DT_FLOAT"}, "Tdim": {"type": "DT_INT32"}}}, {"name": "StatefulPartitionedCall/convolution_4", "op": "Conv2D", "input": ["StatefulPartitionedCall/convolution_4/ExpandDims", "StatefulPartitionedCall/convolution_4/ExpandDims_1"], "device": "/device:CPU:0", "attr": {"T": {"type": "DT_FLOAT"}, "dilations": {"list": {"i": ["1", "1", "1", "1"]}}, "explicit_paddings": {"list": {}}, "padding": {"s": "VkFMSUQ="}, "data_format": {"s": "TkhXQw=="}, "strides": {"list": {"i": ["1", "1", "1", "1"]}}, "use_cudnn_on_gpu": {"b": true}}}, {"name": "StatefulPartitionedCall/convolution_4/Squeeze", "op": "Squeeze", "input": ["StatefulPartitionedCall/convolution_4"], "attr": {"T": {"type": "DT_FLOAT"}, "squeeze_dims": {"list": {"i": ["-3"]}}}}, {"name": "StatefulPartitionedCall/Add_4", "op": "AddV2", "input": ["StatefulPartitionedCall/convolution_4/Squeeze", "unknown_8"], "attr": {"T": {"type": "DT_FLOAT"}}}, {"name": "StatefulPartitionedCall/transpose_16", "op": "Transpose", "input": ["StatefulPartitionedCall/Add_4", "StatefulPartitionedCall/transpose_16/perm"], "attr": {"T": {"type": "DT_FLOAT"}, "Tperm": {"type": "DT_INT32"}}}, {"name": "StatefulPartitionedCall/onnx_tf_prefix_Add_11", "op": "AddV2", "input": ["StatefulPartitionedCall/transpose_16", "StatefulPartitionedCall/onnx_tf_prefix_Relu_7"], "attr": {"T": {"type": "DT_FLOAT"}}}, {"name": "StatefulPartitionedCall/onnx_tf_prefix_Relu_12", "op": "Relu", "input": ["StatefulPartitionedCall/onnx_tf_prefix_Add_11"], "attr": {"T": {"type": "DT_FLOAT"}}}, {"name": "StatefulPartitionedCall/Pad_5", "op": "Pad", "input": ["StatefulPartitionedCall/onnx_tf_prefix_Relu_12", "StatefulPartitionedCall/Const_5"], "attr": {"T": {"type": "DT_FLOAT"}, "Tpaddings": {"type": "DT_INT32"}}}, {"name": "StatefulPartitionedCall/transpose_18", "op": "Transpose", "input": ["StatefulPartitionedCall/Pad_5", "StatefulPartitionedCall/transpose_18/perm"], "attr": {"Tperm": {"type": "DT_INT32"}, "T": {"type": "DT_FLOAT"}}}, {"name": "StatefulPartitionedCall/convolution_5/ExpandDims", "op": "ExpandDims", "input": ["StatefulPartitionedCall/transpose_18", "StatefulPartitionedCall/convolution_5/ExpandDims/dim"], "attr": {"Tdim": {"type": "DT_INT32"}, "T": {"type": "DT_FLOAT"}}}, {"name": "StatefulPartitionedCall/convolution_5", "op": "Conv2D", "input": ["StatefulPartitionedCall/convolution_5/ExpandDims", "StatefulPartitionedCall/convolution_5/ExpandDims_1"], "device": "/device:CPU:0", "attr": {"strides": {"list": {"i": ["1", "1", "1", "1"]}}, "T": {"type": "DT_FLOAT"}, "data_format": {"s": "TkhXQw=="}, "dilations": {"list": {"i": ["1", "1", "1", "1"]}}, "use_cudnn_on_gpu": {"b": true}, "padding": {"s": "VkFMSUQ="}, "explicit_paddings": {"list": {}}}}, {"name": "StatefulPartitionedCall/convolution_5/Squeeze", "op": "Squeeze", "input": ["StatefulPartitionedCall/convolution_5"], "attr": {"squeeze_dims": {"list": {"i": ["-3"]}}, "T": {"type": "DT_FLOAT"}}}, {"name": "StatefulPartitionedCall/Add_5", "op": "AddV2", "input": ["StatefulPartitionedCall/convolution_5/Squeeze", "unknown_10"], "attr": {"T": {"type": "DT_FLOAT"}}}, {"name": "StatefulPartitionedCall/transpose_19", "op": "Transpose", "input": ["StatefulPartitionedCall/Add_5", "StatefulPartitionedCall/transpose_19/perm"], "attr": {"Tperm": {"type": "DT_INT32"}, "T": {"type": "DT_FLOAT"}}}, {"name": "StatefulPartitionedCall/onnx_tf_prefix_Relu_14", "op": "Relu", "input": ["StatefulPartitionedCall/transpose_19"], "attr": {"T": {"type": "DT_FLOAT"}}}, {"name": "StatefulPartitionedCall/Pad_6", "op": "Pad", "input": ["StatefulPartitionedCall/onnx_tf_prefix_Relu_14", "StatefulPartitionedCall/Const_6"], "attr": {"Tpaddings": {"type": "DT_INT32"}, "T": {"type": "DT_FLOAT"}}}, {"name": "StatefulPartitionedCall/transpose_21", "op": "Transpose", "input": ["StatefulPartitionedCall/Pad_6", "StatefulPartitionedCall/transpose_21/perm"], "attr": {"Tperm": {"type": "DT_INT32"}, "T": {"type": "DT_FLOAT"}}}, {"name": "StatefulPartitionedCall/convolution_6/ExpandDims", "op": "ExpandDims", "input": ["StatefulPartitionedCall/transpose_21", "StatefulPartitionedCall/convolution_6/ExpandDims/dim"], "attr": {"T": {"type": "DT_FLOAT"}, "Tdim": {"type": "DT_INT32"}}}, {"name": "StatefulPartitionedCall/convolution_6", "op": "Conv2D", "input": ["StatefulPartitionedCall/convolution_6/ExpandDims", "StatefulPartitionedCall/convolution_6/ExpandDims_1"], "device": "/device:CPU:0", "attr": {"dilations": {"list": {"i": ["1", "1", "1", "1"]}}, "strides": {"list": {"i": ["1", "1", "1", "1"]}}, "explicit_paddings": {"list": {}}, "padding": {"s": "VkFMSUQ="}, "use_cudnn_on_gpu": {"b": true}, "T": {"type": "DT_FLOAT"}, "data_format": {"s": "TkhXQw=="}}}, {"name": "StatefulPartitionedCall/convolution_6/Squeeze", "op": "Squeeze", "input": ["StatefulPartitionedCall/convolution_6"], "attr": {"squeeze_dims": {"list": {"i": ["-3"]}}, "T": {"type": "DT_FLOAT"}}}, {"name": "StatefulPartitionedCall/Add_6", "op": "AddV2", "input": ["StatefulPartitionedCall/convolution_6/Squeeze", "unknown_12"], "attr": {"T": {"type": "DT_FLOAT"}}}, {"name": "StatefulPartitionedCall/transpose_22", "op": "Transpose", "input": ["StatefulPartitionedCall/Add_6", "StatefulPartitionedCall/transpose_22/perm"], "attr": {"T": {"type": "DT_FLOAT"}, "Tperm": {"type": "DT_INT32"}}}, {"name": "StatefulPartitionedCall/onnx_tf_prefix_Add_16", "op": "AddV2", "input": ["StatefulPartitionedCall/transpose_22", "StatefulPartitionedCall/onnx_tf_prefix_Relu_12"], "attr": {"T": {"type": "DT_FLOAT"}}}, {"name": "StatefulPartitionedCall/onnx_tf_prefix_Relu_17", "op": "Relu", "input": ["StatefulPartitionedCall/onnx_tf_prefix_Add_16"], "attr": {"T": {"type": "DT_FLOAT"}}}, {"name": "StatefulPartitionedCall/Pad_7", "op": "Pad", "input": ["StatefulPartitionedCall/onnx_tf_prefix_Relu_17", "StatefulPartitionedCall/Const_7"], "attr": {"Tpaddings": {"type": "DT_INT32"}, "T": {"type": "DT_FLOAT"}}}, {"name": "StatefulPartitionedCall/transpose_30", "op": "Transpose", "input": ["StatefulPartitionedCall/onnx_tf_prefix_Relu_17", "StatefulPartitionedCall/transpose_30/perm"], "attr": {"Tperm": {"type": "DT_INT32"}, "T": {"type": "DT_FLOAT"}}}, {"name": "StatefulPartitionedCall/transpose_24", "op": "Transpose", "input": ["StatefulPartitionedCall/Pad_7", "StatefulPartitionedCall/transpose_24/perm"], "attr": {"Tperm": {"type": "DT_INT32"}, "T": {"type": "DT_FLOAT"}}}, {"name": "StatefulPartitionedCall/convolution_9/ExpandDims", "op": "ExpandDims", "input": ["StatefulPartitionedCall/transpose_30", "StatefulPartitionedCall/convolution_9/ExpandDims/dim"], "attr": {"Tdim": {"type": "DT_INT32"}, "T": {"type": "DT_FLOAT"}}}, {"name": "StatefulPartitionedCall/convolution_7/ExpandDims", "op": "ExpandDims", "input": ["StatefulPartitionedCall/transpose_24", "StatefulPartitionedCall/convolution_7/ExpandDims/dim"], "attr": {"T": {"type": "DT_FLOAT"}, "Tdim": {"type": "DT_INT32"}}}, {"name": "StatefulPartitionedCall/convolution_9", "op": "Conv2D", "input": ["StatefulPartitionedCall/convolution_9/ExpandDims", "StatefulPartitionedCall/convolution_9/ExpandDims_1"], "device": "/device:CPU:0", "attr": {"strides": {"list": {"i": ["1", "1", "2", "1"]}}, "data_format": {"s": "TkhXQw=="}, "padding": {"s": "VkFMSUQ="}, "explicit_paddings": {"list": {}}, "T": {"type": "DT_FLOAT"}, "use_cudnn_on_gpu": {"b": true}, "dilations": {"list": {"i": ["1", "1", "1", "1"]}}}}, {"name": "StatefulPartitionedCall/convolution_7", "op": "Conv2D", "input": ["StatefulPartitionedCall/convolution_7/ExpandDims", "StatefulPartitionedCall/convolution_7/ExpandDims_1"], "device": "/device:CPU:0", "attr": {"explicit_paddings": {"list": {}}, "padding": {"s": "VkFMSUQ="}, "dilations": {"list": {"i": ["1", "1", "1", "1"]}}, "use_cudnn_on_gpu": {"b": true}, "T": {"type": "DT_FLOAT"}, "strides": {"list": {"i": ["1", "1", "2", "1"]}}, "data_format": {"s": "TkhXQw=="}}}, {"name": "StatefulPartitionedCall/convolution_9/Squeeze", "op": "Squeeze", "input": ["StatefulPartitionedCall/convolution_9"], "attr": {"T": {"type": "DT_FLOAT"}, "squeeze_dims": {"list": {"i": ["-3"]}}}}, {"name": "StatefulPartitionedCall/convolution_7/Squeeze", "op": "Squeeze", "input": ["StatefulPartitionedCall/convolution_7"], "attr": {"squeeze_dims": {"list": {"i": ["-3"]}}, "T": {"type": "DT_FLOAT"}}}, {"name": "StatefulPartitionedCall/Add_9", "op": "AddV2", "input": ["StatefulPartitionedCall/convolution_9/Squeeze", "unknown_18"], "attr": {"T": {"type": "DT_FLOAT"}}}, {"name": "StatefulPartitionedCall/Add_7", "op": "AddV2", "input": ["StatefulPartitionedCall/convolution_7/Squeeze", "unknown_14"], "attr": {"T": {"type": "DT_FLOAT"}}}, {"name": "StatefulPartitionedCall/transpose_31", "op": "Transpose", "input": ["StatefulPartitionedCall/Add_9", "StatefulPartitionedCall/transpose_31/perm"], "attr": {"Tperm": {"type": "DT_INT32"}, "T": {"type": "DT_FLOAT"}}}, {"name": "StatefulPartitionedCall/transpose_25", "op": "Transpose", "input": ["StatefulPartitionedCall/Add_7", "StatefulPartitionedCall/transpose_25/perm"], "attr": {"Tperm": {"type": "DT_INT32"}, "T": {"type": "DT_FLOAT"}}}, {"name": "StatefulPartitionedCall/onnx_tf_prefix_Relu_19", "op": "Relu", "input": ["StatefulPartitionedCall/transpose_25"], "attr": {"T": {"type": "DT_FLOAT"}}}, {"name": "StatefulPartitionedCall/Pad_8", "op": "Pad", "input": ["StatefulPartitionedCall/onnx_tf_prefix_Relu_19", "StatefulPartitionedCall/Const_8"], "attr": {"Tpaddings": {"type": "DT_INT32"}, "T": {"type": "DT_FLOAT"}}}, {"name": "StatefulPartitionedCall/transpose_27", "op": "Transpose", "input": ["StatefulPartitionedCall/Pad_8", "StatefulPartitionedCall/transpose_27/perm"], "attr": {"T": {"type": "DT_FLOAT"}, "Tperm": {"type": "DT_INT32"}}}, {"name": "StatefulPartitionedCall/convolution_8/ExpandDims", "op": "ExpandDims", "input": ["StatefulPartitionedCall/transpose_27", "StatefulPartitionedCall/convolution_8/ExpandDims/dim"], "attr": {"T": {"type": "DT_FLOAT"}, "Tdim": {"type": "DT_INT32"}}}, {"name": "StatefulPartitionedCall/convolution_8", "op": "Conv2D", "input": ["StatefulPartitionedCall/convolution_8/ExpandDims", "StatefulPartitionedCall/convolution_8/ExpandDims_1"], "device": "/device:CPU:0", "attr": {"padding": {"s": "VkFMSUQ="}, "data_format": {"s": "TkhXQw=="}, "use_cudnn_on_gpu": {"b": true}, "strides": {"list": {"i": ["1", "1", "1", "1"]}}, "dilations": {"list": {"i": ["1", "1", "1", "1"]}}, "explicit_paddings": {"list": {}}, "T": {"type": "DT_FLOAT"}}}, {"name": "StatefulPartitionedCall/convolution_8/Squeeze", "op": "Squeeze", "input": ["StatefulPartitionedCall/convolution_8"], "attr": {"squeeze_dims": {"list": {"i": ["-3"]}}, "T": {"type": "DT_FLOAT"}}}, {"name": "StatefulPartitionedCall/Add_8", "op": "AddV2", "input": ["StatefulPartitionedCall/convolution_8/Squeeze", "unknown_16"], "attr": {"T": {"type": "DT_FLOAT"}}}, {"name": "StatefulPartitionedCall/transpose_28", "op": "Transpose", "input": ["StatefulPartitionedCall/Add_8", "StatefulPartitionedCall/transpose_28/perm"], "attr": {"T": {"type": "DT_FLOAT"}, "Tperm": {"type": "DT_INT32"}}}, {"name": "StatefulPartitionedCall/onnx_tf_prefix_Add_22", "op": "AddV2", "input": ["StatefulPartitionedCall/transpose_28", "StatefulPartitionedCall/transpose_31"], "attr": {"T": {"type": "DT_FLOAT"}}}, {"name": "StatefulPartitionedCall/onnx_tf_prefix_Relu_23", "op": "Relu", "input": ["StatefulPartitionedCall/onnx_tf_prefix_Add_22"], "attr": {"T": {"type": "DT_FLOAT"}}}, {"name": "StatefulPartitionedCall/Pad_9", "op": "Pad", "input": ["StatefulPartitionedCall/onnx_tf_prefix_Relu_23", "StatefulPartitionedCall/Const_9"], "attr": {"T": {"type": "DT_FLOAT"}, "Tpaddings": {"type": "DT_INT32"}}}, {"name": "StatefulPartitionedCall/transpose_33", "op": "Transpose", "input": ["StatefulPartitionedCall/Pad_9", "StatefulPartitionedCall/transpose_33/perm"], "attr": {"Tperm": {"type": "DT_INT32"}, "T": {"type": "DT_FLOAT"}}}, {"name": "StatefulPartitionedCall/convolution_10/ExpandDims", "op": "ExpandDims", "input": ["StatefulPartitionedCall/transpose_33", "StatefulPartitionedCall/convolution_10/ExpandDims/dim"], "attr": {"T": {"type": "DT_FLOAT"}, "Tdim": {"type": "DT_INT32"}}}, {"name": "StatefulPartitionedCall/convolution_10", "op": "Conv2D", "input": ["StatefulPartitionedCall/convolution_10/ExpandDims", "StatefulPartitionedCall/convolution_10/ExpandDims_1"], "device": "/device:CPU:0", "attr": {"padding": {"s": "VkFMSUQ="}, "explicit_paddings": {"list": {}}, "T": {"type": "DT_FLOAT"}, "use_cudnn_on_gpu": {"b": true}, "data_format": {"s": "TkhXQw=="}, "dilations": {"list": {"i": ["1", "1", "1", "1"]}}, "strides": {"list": {"i": ["1", "1", "1", "1"]}}}}, {"name": "StatefulPartitionedCall/convolution_10/Squeeze", "op": "Squeeze", "input": ["StatefulPartitionedCall/convolution_10"], "attr": {"squeeze_dims": {"list": {"i": ["-3"]}}, "T": {"type": "DT_FLOAT"}}}, {"name": "StatefulPartitionedCall/Add_10", "op": "AddV2", "input": ["StatefulPartitionedCall/convolution_10/Squeeze", "unknown_20"], "attr": {"T": {"type": "DT_FLOAT"}}}, {"name": "StatefulPartitionedCall/transpose_34", "op": "Transpose", "input": ["StatefulPartitionedCall/Add_10", "StatefulPartitionedCall/transpose_34/perm"], "attr": {"T": {"type": "DT_FLOAT"}, "Tperm": {"type": "DT_INT32"}}}, {"name": "StatefulPartitionedCall/onnx_tf_prefix_Relu_25", "op": "Relu", "input": ["StatefulPartitionedCall/transpose_34"], "attr": {"T": {"type": "DT_FLOAT"}}}, {"name": "StatefulPartitionedCall/Pad_10", "op": "Pad", "input": ["StatefulPartitionedCall/onnx_tf_prefix_Relu_25", "StatefulPartitionedCall/Const_10"], "attr": {"T": {"type": "DT_FLOAT"}, "Tpaddings": {"type": "DT_INT32"}}}, {"name": "StatefulPartitionedCall/transpose_36", "op": "Transpose", "input": ["StatefulPartitionedCall/Pad_10", "StatefulPartitionedCall/transpose_36/perm"], "attr": {"T": {"type": "DT_FLOAT"}, "Tperm": {"type": "DT_INT32"}}}, {"name": "StatefulPartitionedCall/convolution_11/ExpandDims", "op": "ExpandDims", "input": ["StatefulPartitionedCall/transpose_36", "StatefulPartitionedCall/convolution_11/ExpandDims/dim"], "attr": {"T": {"type": "DT_FLOAT"}, "Tdim": {"type": "DT_INT32"}}}, {"name": "StatefulPartitionedCall/convolution_11", "op": "Conv2D", "input": ["StatefulPartitionedCall/convolution_11/ExpandDims", "StatefulPartitionedCall/convolution_11/ExpandDims_1"], "device": "/device:CPU:0", "attr": {"explicit_paddings": {"list": {}}, "padding": {"s": "VkFMSUQ="}, "use_cudnn_on_gpu": {"b": true}, "data_format": {"s": "TkhXQw=="}, "dilations": {"list": {"i": ["1", "1", "1", "1"]}}, "strides": {"list": {"i": ["1", "1", "1", "1"]}}, "T": {"type": "DT_FLOAT"}}}, {"name": "StatefulPartitionedCall/convolution_11/Squeeze", "op": "Squeeze", "input": ["StatefulPartitionedCall/convolution_11"], "attr": {"T": {"type": "DT_FLOAT"}, "squeeze_dims": {"list": {"i": ["-3"]}}}}, {"name": "StatefulPartitionedCall/Add_11", "op": "AddV2", "input": ["StatefulPartitionedCall/convolution_11/Squeeze", "unknown_22"], "attr": {"T": {"type": "DT_FLOAT"}}}, {"name": "StatefulPartitionedCall/transpose_37", "op": "Transpose", "input": ["StatefulPartitionedCall/Add_11", "StatefulPartitionedCall/transpose_37/perm"], "attr": {"Tperm": {"type": "DT_INT32"}, "T": {"type": "DT_FLOAT"}}}, {"name": "StatefulPartitionedCall/onnx_tf_prefix_Add_27", "op": "AddV2", "input": ["StatefulPartitionedCall/transpose_37", "StatefulPartitionedCall/onnx_tf_prefix_Relu_23"], "attr": {"T": {"type": "DT_FLOAT"}}}, {"name": "StatefulPartitionedCall/onnx_tf_prefix_Relu_28", "op": "Relu", "input": ["StatefulPartitionedCall/onnx_tf_prefix_Add_27"], "attr": {"T": {"type": "DT_FLOAT"}}}, {"name": "StatefulPartitionedCall/Pad_11", "op": "Pad", "input": ["StatefulPartitionedCall/onnx_tf_prefix_Relu_28", "StatefulPartitionedCall/Const_11"], "attr": {"Tpaddings": {"type": "DT_INT32"}, "T": {"type": "DT_FLOAT"}}}, {"name": "StatefulPartitionedCall/transpose_39", "op": "Transpose", "input": ["StatefulPartitionedCall/Pad_11", "StatefulPartitionedCall/transpose_39/perm"], "attr": {"Tperm": {"type": "DT_INT32"}, "T": {"type": "DT_FLOAT"}}}, {"name": "StatefulPartitionedCall/convolution_12/ExpandDims", "op": "ExpandDims", "input": ["StatefulPartitionedCall/transpose_39", "StatefulPartitionedCall/convolution_12/ExpandDims/dim"], "attr": {"T": {"type": "DT_FLOAT"}, "Tdim": {"type": "DT_INT32"}}}, {"name": "StatefulPartitionedCall/convolution_12", "op": "Conv2D", "input": ["StatefulPartitionedCall/convolution_12/ExpandDims", "StatefulPartitionedCall/convolution_12/ExpandDims_1"], "device": "/device:CPU:0", "attr": {"padding": {"s": "VkFMSUQ="}, "T": {"type": "DT_FLOAT"}, "use_cudnn_on_gpu": {"b": true}, "data_format": {"s": "TkhXQw=="}, "dilations": {"list": {"i": ["1", "1", "1", "1"]}}, "explicit_paddings": {"list": {}}, "strides": {"list": {"i": ["1", "1", "1", "1"]}}}}, {"name": "StatefulPartitionedCall/convolution_12/Squeeze", "op": "Squeeze", "input": ["StatefulPartitionedCall/convolution_12"], "attr": {"squeeze_dims": {"list": {"i": ["-3"]}}, "T": {"type": "DT_FLOAT"}}}, {"name": "StatefulPartitionedCall/Add_12", "op": "AddV2", "input": ["StatefulPartitionedCall/convolution_12/Squeeze", "unknown_24"], "attr": {"T": {"type": "DT_FLOAT"}}}, {"name": "StatefulPartitionedCall/transpose_40", "op": "Transpose", "input": ["StatefulPartitionedCall/Add_12", "StatefulPartitionedCall/transpose_40/perm"], "attr": {"T": {"type": "DT_FLOAT"}, "Tperm": {"type": "DT_INT32"}}}, {"name": "StatefulPartitionedCall/onnx_tf_prefix_Relu_30", "op": "Relu", "input": ["StatefulPartitionedCall/transpose_40"], "attr": {"T": {"type": "DT_FLOAT"}}}, {"name": "StatefulPartitionedCall/Pad_12", "op": "Pad", "input": ["StatefulPartitionedCall/onnx_tf_prefix_Relu_30", "StatefulPartitionedCall/Const_12"], "attr": {"Tpaddings": {"type": "DT_INT32"}, "T": {"type": "DT_FLOAT"}}}, {"name": "StatefulPartitionedCall/transpose_42", "op": "Transpose", "input": ["StatefulPartitionedCall/Pad_12", "StatefulPartitionedCall/transpose_42/perm"], "attr": {"T": {"type": "DT_FLOAT"}, "Tperm": {"type": "DT_INT32"}}}, {"name": "StatefulPartitionedCall/convolution_13/ExpandDims", "op": "ExpandDims", "input": ["StatefulPartitionedCall/transpose_42", "StatefulPartitionedCall/convolution_13/ExpandDims/dim"], "attr": {"Tdim": {"type": "DT_INT32"}, "T": {"type": "DT_FLOAT"}}}, {"name": "StatefulPartitionedCall/convolution_13", "op": "Conv2D", "input": ["StatefulPartitionedCall/convolution_13/ExpandDims", "StatefulPartitionedCall/convolution_13/ExpandDims_1"], "device": "/device:CPU:0", "attr": {"dilations": {"list": {"i": ["1", "1", "1", "1"]}}, "use_cudnn_on_gpu": {"b": true}, "padding": {"s": "VkFMSUQ="}, "data_format": {"s": "TkhXQw=="}, "strides": {"list": {"i": ["1", "1", "1", "1"]}}, "explicit_paddings": {"list": {}}, "T": {"type": "DT_FLOAT"}}}, {"name": "StatefulPartitionedCall/convolution_13/Squeeze", "op": "Squeeze", "input": ["StatefulPartitionedCall/convolution_13"], "attr": {"T": {"type": "DT_FLOAT"}, "squeeze_dims": {"list": {"i": ["-3"]}}}}, {"name": "StatefulPartitionedCall/Add_13", "op": "AddV2", "input": ["StatefulPartitionedCall/convolution_13/Squeeze", "unknown_26"], "attr": {"T": {"type": "DT_FLOAT"}}}, {"name": "StatefulPartitionedCall/transpose_43", "op": "Transpose", "input": ["StatefulPartitionedCall/Add_13", "StatefulPartitionedCall/transpose_43/perm"], "attr": {"T": {"type": "DT_FLOAT"}, "Tperm": {"type": "DT_INT32"}}}, {"name": "StatefulPartitionedCall/onnx_tf_prefix_Add_32", "op": "AddV2", "input": ["StatefulPartitionedCall/transpose_43", "StatefulPartitionedCall/onnx_tf_prefix_Relu_28"], "attr": {"T": {"type": "DT_FLOAT"}}}, {"name": "StatefulPartitionedCall/onnx_tf_prefix_Relu_33", "op": "Relu", "input": ["StatefulPartitionedCall/onnx_tf_prefix_Add_32"], "attr": {"T": {"type": "DT_FLOAT"}}}, {"name": "StatefulPartitionedCall/Pad_13", "op": "Pad", "input": ["StatefulPartitionedCall/onnx_tf_prefix_Relu_33", "StatefulPartitionedCall/Const_13"], "attr": {"Tpaddings": {"type": "DT_INT32"}, "T": {"type": "DT_FLOAT"}}}, {"name": "StatefulPartitionedCall/transpose_45", "op": "Transpose", "input": ["StatefulPartitionedCall/Pad_13", "StatefulPartitionedCall/transpose_45/perm"], "attr": {"Tperm": {"type": "DT_INT32"}, "T": {"type": "DT_FLOAT"}}}, {"name": "StatefulPartitionedCall/convolution_14/ExpandDims", "op": "ExpandDims", "input": ["StatefulPartitionedCall/transpose_45", "StatefulPartitionedCall/convolution_14/ExpandDims/dim"], "attr": {"Tdim": {"type": "DT_INT32"}, "T": {"type": "DT_FLOAT"}}}, {"name": "StatefulPartitionedCall/convolution_14", "op": "Conv2D", "input": ["StatefulPartitionedCall/convolution_14/ExpandDims", "StatefulPartitionedCall/convolution_14/ExpandDims_1"], "device": "/device:CPU:0", "attr": {"padding": {"s": "VkFMSUQ="}, "dilations": {"list": {"i": ["1", "1", "1", "1"]}}, "T": {"type": "DT_FLOAT"}, "explicit_paddings": {"list": {}}, "data_format": {"s": "TkhXQw=="}, "use_cudnn_on_gpu": {"b": true}, "strides": {"list": {"i": ["1", "1", "1", "1"]}}}}, {"name": "StatefulPartitionedCall/convolution_14/Squeeze", "op": "Squeeze", "input": ["StatefulPartitionedCall/convolution_14"], "attr": {"T": {"type": "DT_FLOAT"}, "squeeze_dims": {"list": {"i": ["-3"]}}}}, {"name": "StatefulPartitionedCall/Add_14", "op": "AddV2", "input": ["StatefulPartitionedCall/convolution_14/Squeeze", "unknown_28"], "attr": {"T": {"type": "DT_FLOAT"}}}, {"name": "StatefulPartitionedCall/transpose_46", "op": "Transpose", "input": ["StatefulPartitionedCall/Add_14", "StatefulPartitionedCall/transpose_46/perm"], "attr": {"T": {"type": "DT_FLOAT"}, "Tperm": {"type": "DT_INT32"}}}, {"name": "StatefulPartitionedCall/onnx_tf_prefix_Relu_35", "op": "Relu", "input": ["StatefulPartitionedCall/transpose_46"], "attr": {"T": {"type": "DT_FLOAT"}}}, {"name": "StatefulPartitionedCall/Pad_14", "op": "Pad", "input": ["StatefulPartitionedCall/onnx_tf_prefix_Relu_35", "StatefulPartitionedCall/Const_14"], "attr": {"Tpaddings": {"type": "DT_INT32"}, "T": {"type": "DT_FLOAT"}}}, {"name": "StatefulPartitionedCall/transpose_48", "op": "Transpose", "input": ["StatefulPartitionedCall/Pad_14", "StatefulPartitionedCall/transpose_48/perm"], "attr": {"Tperm": {"type": "DT_INT32"}, "T": {"type": "DT_FLOAT"}}}, {"name": "StatefulPartitionedCall/convolution_15/ExpandDims", "op": "ExpandDims", "input": ["StatefulPartitionedCall/transpose_48", "StatefulPartitionedCall/convolution_15/ExpandDims/dim"], "attr": {"T": {"type": "DT_FLOAT"}, "Tdim": {"type": "DT_INT32"}}}, {"name": "StatefulPartitionedCall/convolution_15", "op": "Conv2D", "input": ["StatefulPartitionedCall/convolution_15/ExpandDims", "StatefulPartitionedCall/convolution_15/ExpandDims_1"], "device": "/device:CPU:0", "attr": {"dilations": {"list": {"i": ["1", "1", "1", "1"]}}, "padding": {"s": "VkFMSUQ="}, "use_cudnn_on_gpu": {"b": true}, "data_format": {"s": "TkhXQw=="}, "explicit_paddings": {"list": {}}, "strides": {"list": {"i": ["1", "1", "1", "1"]}}, "T": {"type": "DT_FLOAT"}}}, {"name": "StatefulPartitionedCall/convolution_15/Squeeze", "op": "Squeeze", "input": ["StatefulPartitionedCall/convolution_15"], "attr": {"squeeze_dims": {"list": {"i": ["-3"]}}, "T": {"type": "DT_FLOAT"}}}, {"name": "StatefulPartitionedCall/Add_15", "op": "AddV2", "input": ["StatefulPartitionedCall/convolution_15/Squeeze", "unknown_30"], "attr": {"T": {"type": "DT_FLOAT"}}}, {"name": "StatefulPartitionedCall/transpose_49", "op": "Transpose", "input": ["StatefulPartitionedCall/Add_15", "StatefulPartitionedCall/transpose_49/perm"], "attr": {"T": {"type": "DT_FLOAT"}, "Tperm": {"type": "DT_INT32"}}}, {"name": "StatefulPartitionedCall/onnx_tf_prefix_Add_37", "op": "AddV2", "input": ["StatefulPartitionedCall/transpose_49", "StatefulPartitionedCall/onnx_tf_prefix_Relu_33"], "attr": {"T": {"type": "DT_FLOAT"}}}, {"name": "StatefulPartitionedCall/onnx_tf_prefix_Relu_38", "op": "Relu", "input": ["StatefulPartitionedCall/onnx_tf_prefix_Add_37"], "attr": {"T": {"type": "DT_FLOAT"}}}, {"name": "StatefulPartitionedCall/Pad_15", "op": "Pad", "input": ["StatefulPartitionedCall/onnx_tf_prefix_Relu_38", "StatefulPartitionedCall/Const_15"], "attr": {"Tpaddings": {"type": "DT_INT32"}, "T": {"type": "DT_FLOAT"}}}, {"name": "StatefulPartitionedCall/transpose_57", "op": "Transpose", "input": ["StatefulPartitionedCall/onnx_tf_prefix_Relu_38", "StatefulPartitionedCall/transpose_57/perm"], "attr": {"T": {"type": "DT_FLOAT"}, "Tperm": {"type": "DT_INT32"}}}, {"name": "StatefulPartitionedCall/transpose_51", "op": "Transpose", "input": ["StatefulPartitionedCall/Pad_15", "StatefulPartitionedCall/transpose_51/perm"], "attr": {"Tperm": {"type": "DT_INT32"}, "T": {"type": "DT_FLOAT"}}}, {"name": "StatefulPartitionedCall/convolution_18/ExpandDims", "op": "ExpandDims", "input": ["StatefulPartitionedCall/transpose_57", "StatefulPartitionedCall/convolution_18/ExpandDims/dim"], "attr": {"Tdim": {"type": "DT_INT32"}, "T": {"type": "DT_FLOAT"}}}, {"name": "StatefulPartitionedCall/convolution_16/ExpandDims", "op": "ExpandDims", "input": ["StatefulPartitionedCall/transpose_51", "StatefulPartitionedCall/convolution_16/ExpandDims/dim"], "attr": {"T": {"type": "DT_FLOAT"}, "Tdim": {"type": "DT_INT32"}}}, {"name": "StatefulPartitionedCall/convolution_18", "op": "Conv2D", "input": ["StatefulPartitionedCall/convolution_18/ExpandDims", "StatefulPartitionedCall/convolution_18/ExpandDims_1"], "device": "/device:CPU:0", "attr": {"padding": {"s": "VkFMSUQ="}, "strides": {"list": {"i": ["1", "1", "2", "1"]}}, "dilations": {"list": {"i": ["1", "1", "1", "1"]}}, "T": {"type": "DT_FLOAT"}, "explicit_paddings": {"list": {}}, "use_cudnn_on_gpu": {"b": true}, "data_format": {"s": "TkhXQw=="}}}, {"name": "StatefulPartitionedCall/convolution_16", "op": "Conv2D", "input": ["StatefulPartitionedCall/convolution_16/ExpandDims", "StatefulPartitionedCall/convolution_16/ExpandDims_1"], "device": "/device:CPU:0", "attr": {"dilations": {"list": {"i": ["1", "1", "1", "1"]}}, "data_format": {"s": "TkhXQw=="}, "T": {"type": "DT_FLOAT"}, "padding": {"s": "VkFMSUQ="}, "strides": {"list": {"i": ["1", "1", "2", "1"]}}, "explicit_paddings": {"list": {}}, "use_cudnn_on_gpu": {"b": true}}}, {"name": "StatefulPartitionedCall/convolution_18/Squeeze", "op": "Squeeze", "input": ["StatefulPartitionedCall/convolution_18"], "attr": {"squeeze_dims": {"list": {"i": ["-3"]}}, "T": {"type": "DT_FLOAT"}}}, {"name": "StatefulPartitionedCall/convolution_16/Squeeze", "op": "Squeeze", "input": ["StatefulPartitionedCall/convolution_16"], "attr": {"T": {"type": "DT_FLOAT"}, "squeeze_dims": {"list": {"i": ["-3"]}}}}, {"name": "StatefulPartitionedCall/Add_18", "op": "AddV2", "input": ["StatefulPartitionedCall/convolution_18/Squeeze", "unknown_36"], "attr": {"T": {"type": "DT_FLOAT"}}}, {"name": "StatefulPartitionedCall/Add_16", "op": "AddV2", "input": ["StatefulPartitionedCall/convolution_16/Squeeze", "unknown_32"], "attr": {"T": {"type": "DT_FLOAT"}}}, {"name": "StatefulPartitionedCall/transpose_58", "op": "Transpose", "input": ["StatefulPartitionedCall/Add_18", "StatefulPartitionedCall/transpose_58/perm"], "attr": {"T": {"type": "DT_FLOAT"}, "Tperm": {"type": "DT_INT32"}}}, {"name": "StatefulPartitionedCall/transpose_52", "op": "Transpose", "input": ["StatefulPartitionedCall/Add_16", "StatefulPartitionedCall/transpose_52/perm"], "attr": {"Tperm": {"type": "DT_INT32"}, "T": {"type": "DT_FLOAT"}}}, {"name": "StatefulPartitionedCall/onnx_tf_prefix_Relu_40", "op": "Relu", "input": ["StatefulPartitionedCall/transpose_52"], "attr": {"T": {"type": "DT_FLOAT"}}}, {"name": "StatefulPartitionedCall/Pad_16", "op": "Pad", "input": ["StatefulPartitionedCall/onnx_tf_prefix_Relu_40", "StatefulPartitionedCall/Const_16"], "attr": {"T": {"type": "DT_FLOAT"}, "Tpaddings": {"type": "DT_INT32"}}}, {"name": "StatefulPartitionedCall/transpose_54", "op": "Transpose", "input": ["StatefulPartitionedCall/Pad_16", "StatefulPartitionedCall/transpose_54/perm"], "attr": {"Tperm": {"type": "DT_INT32"}, "T": {"type": "DT_FLOAT"}}}, {"name": "StatefulPartitionedCall/convolution_17/ExpandDims", "op": "ExpandDims", "input": ["StatefulPartitionedCall/transpose_54", "StatefulPartitionedCall/convolution_17/ExpandDims/dim"], "attr": {"Tdim": {"type": "DT_INT32"}, "T": {"type": "DT_FLOAT"}}}, {"name": "StatefulPartitionedCall/convolution_17", "op": "Conv2D", "input": ["StatefulPartitionedCall/convolution_17/ExpandDims", "StatefulPartitionedCall/convolution_17/ExpandDims_1"], "device": "/device:CPU:0", "attr": {"data_format": {"s": "TkhXQw=="}, "explicit_paddings": {"list": {}}, "strides": {"list": {"i": ["1", "1", "1", "1"]}}, "use_cudnn_on_gpu": {"b": true}, "padding": {"s": "VkFMSUQ="}, "dilations": {"list": {"i": ["1", "1", "1", "1"]}}, "T": {"type": "DT_FLOAT"}}}, {"name": "StatefulPartitionedCall/convolution_17/Squeeze", "op": "Squeeze", "input": ["StatefulPartitionedCall/convolution_17"], "attr": {"squeeze_dims": {"list": {"i": ["-3"]}}, "T": {"type": "DT_FLOAT"}}}, {"name": "StatefulPartitionedCall/Add_17", "op": "AddV2", "input": ["StatefulPartitionedCall/convolution_17/Squeeze", "unknown_34"], "attr": {"T": {"type": "DT_FLOAT"}}}, {"name": "StatefulPartitionedCall/transpose_55", "op": "Transpose", "input": ["StatefulPartitionedCall/Add_17", "StatefulPartitionedCall/transpose_55/perm"], "attr": {"T": {"type": "DT_FLOAT"}, "Tperm": {"type": "DT_INT32"}}}, {"name": "StatefulPartitionedCall/onnx_tf_prefix_Add_43", "op": "AddV2", "input": ["StatefulPartitionedCall/transpose_55", "StatefulPartitionedCall/transpose_58"], "attr": {"T": {"type": "DT_FLOAT"}}}, {"name": "StatefulPartitionedCall/onnx_tf_prefix_Relu_44", "op": "Relu", "input": ["StatefulPartitionedCall/onnx_tf_prefix_Add_43"], "attr": {"T": {"type": "DT_FLOAT"}}}, {"name": "StatefulPartitionedCall/Pad_17", "op": "Pad", "input": ["StatefulPartitionedCall/onnx_tf_prefix_Relu_44", "StatefulPartitionedCall/Const_17"], "attr": {"T": {"type": "DT_FLOAT"}, "Tpaddings": {"type": "DT_INT32"}}}, {"name": "StatefulPartitionedCall/transpose_60", "op": "Transpose", "input": ["StatefulPartitionedCall/Pad_17", "StatefulPartitionedCall/transpose_60/perm"], "attr": {"Tperm": {"type": "DT_INT32"}, "T": {"type": "DT_FLOAT"}}}, {"name": "StatefulPartitionedCall/convolution_19/ExpandDims", "op": "ExpandDims", "input": ["StatefulPartitionedCall/transpose_60", "StatefulPartitionedCall/convolution_19/ExpandDims/dim"], "attr": {"Tdim": {"type": "DT_INT32"}, "T": {"type": "DT_FLOAT"}}}, {"name": "StatefulPartitionedCall/convolution_19", "op": "Conv2D", "input": ["StatefulPartitionedCall/convolution_19/ExpandDims", "StatefulPartitionedCall/convolution_19/ExpandDims_1"], "device": "/device:CPU:0", "attr": {"data_format": {"s": "TkhXQw=="}, "strides": {"list": {"i": ["1", "1", "1", "1"]}}, "dilations": {"list": {"i": ["1", "1", "1", "1"]}}, "use_cudnn_on_gpu": {"b": true}, "explicit_paddings": {"list": {}}, "padding": {"s": "VkFMSUQ="}, "T": {"type": "DT_FLOAT"}}}, {"name": "StatefulPartitionedCall/convolution_19/Squeeze", "op": "Squeeze", "input": ["StatefulPartitionedCall/convolution_19"], "attr": {"squeeze_dims": {"list": {"i": ["-3"]}}, "T": {"type": "DT_FLOAT"}}}, {"name": "StatefulPartitionedCall/Add_19", "op": "AddV2", "input": ["StatefulPartitionedCall/convolution_19/Squeeze", "unknown_38"], "attr": {"T": {"type": "DT_FLOAT"}}}, {"name": "StatefulPartitionedCall/transpose_61", "op": "Transpose", "input": ["StatefulPartitionedCall/Add_19", "StatefulPartitionedCall/transpose_61/perm"], "attr": {"Tperm": {"type": "DT_INT32"}, "T": {"type": "DT_FLOAT"}}}, {"name": "StatefulPartitionedCall/onnx_tf_prefix_Relu_46", "op": "Relu", "input": ["StatefulPartitionedCall/transpose_61"], "attr": {"T": {"type": "DT_FLOAT"}}}, {"name": "StatefulPartitionedCall/Pad_18", "op": "Pad", "input": ["StatefulPartitionedCall/onnx_tf_prefix_Relu_46", "StatefulPartitionedCall/Const_18"], "attr": {"T": {"type": "DT_FLOAT"}, "Tpaddings": {"type": "DT_INT32"}}}, {"name": "StatefulPartitionedCall/transpose_63", "op": "Transpose", "input": ["StatefulPartitionedCall/Pad_18", "StatefulPartitionedCall/transpose_63/perm"], "attr": {"T": {"type": "DT_FLOAT"}, "Tperm": {"type": "DT_INT32"}}}, {"name": "StatefulPartitionedCall/convolution_20/ExpandDims", "op": "ExpandDims", "input": ["StatefulPartitionedCall/transpose_63", "StatefulPartitionedCall/convolution_20/ExpandDims/dim"], "attr": {"T": {"type": "DT_FLOAT"}, "Tdim": {"type": "DT_INT32"}}}, {"name": "StatefulPartitionedCall/convolution_20", "op": "Conv2D", "input": ["StatefulPartitionedCall/convolution_20/ExpandDims", "StatefulPartitionedCall/convolution_20/ExpandDims_1"], "device": "/device:CPU:0", "attr": {"use_cudnn_on_gpu": {"b": true}, "data_format": {"s": "TkhXQw=="}, "explicit_paddings": {"list": {}}, "padding": {"s": "VkFMSUQ="}, "T": {"type": "DT_FLOAT"}, "strides": {"list": {"i": ["1", "1", "1", "1"]}}, "dilations": {"list": {"i": ["1", "1", "1", "1"]}}}}, {"name": "StatefulPartitionedCall/convolution_20/Squeeze", "op": "Squeeze", "input": ["StatefulPartitionedCall/convolution_20"], "attr": {"squeeze_dims": {"list": {"i": ["-3"]}}, "T": {"type": "DT_FLOAT"}}}, {"name": "StatefulPartitionedCall/Add_20", "op": "AddV2", "input": ["StatefulPartitionedCall/convolution_20/Squeeze", "unknown_40"], "attr": {"T": {"type": "DT_FLOAT"}}}, {"name": "StatefulPartitionedCall/transpose_64", "op": "Transpose", "input": ["StatefulPartitionedCall/Add_20", "StatefulPartitionedCall/transpose_64/perm"], "attr": {"T": {"type": "DT_FLOAT"}, "Tperm": {"type": "DT_INT32"}}}, {"name": "StatefulPartitionedCall/onnx_tf_prefix_Add_48", "op": "AddV2", "input": ["StatefulPartitionedCall/transpose_64", "StatefulPartitionedCall/onnx_tf_prefix_Relu_44"], "attr": {"T": {"type": "DT_FLOAT"}}}, {"name": "StatefulPartitionedCall/onnx_tf_prefix_Relu_49", "op": "Relu", "input": ["StatefulPartitionedCall/onnx_tf_prefix_Add_48"], "attr": {"T": {"type": "DT_FLOAT"}}}, {"name": "StatefulPartitionedCall/Pad_19", "op": "Pad", "input": ["StatefulPartitionedCall/onnx_tf_prefix_Relu_49", "StatefulPartitionedCall/Const_19"], "attr": {"T": {"type": "DT_FLOAT"}, "Tpaddings": {"type": "DT_INT32"}}}, {"name": "StatefulPartitionedCall/transpose_66", "op": "Transpose", "input": ["StatefulPartitionedCall/Pad_19", "StatefulPartitionedCall/transpose_66/perm"], "attr": {"Tperm": {"type": "DT_INT32"}, "T": {"type": "DT_FLOAT"}}}, {"name": "StatefulPartitionedCall/convolution_21/ExpandDims", "op": "ExpandDims", "input": ["StatefulPartitionedCall/transpose_66", "StatefulPartitionedCall/convolution_21/ExpandDims/dim"], "attr": {"T": {"type": "DT_FLOAT"}, "Tdim": {"type": "DT_INT32"}}}, {"name": "StatefulPartitionedCall/convolution_21", "op": "Conv2D", "input": ["StatefulPartitionedCall/convolution_21/ExpandDims", "StatefulPartitionedCall/convolution_21/ExpandDims_1"], "device": "/device:CPU:0", "attr": {"explicit_paddings": {"list": {}}, "padding": {"s": "VkFMSUQ="}, "data_format": {"s": "TkhXQw=="}, "strides": {"list": {"i": ["1", "1", "1", "1"]}}, "use_cudnn_on_gpu": {"b": true}, "T": {"type": "DT_FLOAT"}, "dilations": {"list": {"i": ["1", "1", "1", "1"]}}}}, {"name": "StatefulPartitionedCall/convolution_21/Squeeze", "op": "Squeeze", "input": ["StatefulPartitionedCall/convolution_21"], "attr": {"T": {"type": "DT_FLOAT"}, "squeeze_dims": {"list": {"i": ["-3"]}}}}, {"name": "StatefulPartitionedCall/Add_21", "op": "AddV2", "input": ["StatefulPartitionedCall/convolution_21/Squeeze", "unknown_42"], "attr": {"T": {"type": "DT_FLOAT"}}}, {"name": "StatefulPartitionedCall/transpose_67", "op": "Transpose", "input": ["StatefulPartitionedCall/Add_21", "StatefulPartitionedCall/transpose_67/perm"], "attr": {"T": {"type": "DT_FLOAT"}, "Tperm": {"type": "DT_INT32"}}}, {"name": "StatefulPartitionedCall/onnx_tf_prefix_Relu_51", "op": "Relu", "input": ["StatefulPartitionedCall/transpose_67"], "attr": {"T": {"type": "DT_FLOAT"}}}, {"name": "StatefulPartitionedCall/Pad_20", "op": "Pad", "input": ["StatefulPartitionedCall/onnx_tf_prefix_Relu_51", "StatefulPartitionedCall/Const_20"], "attr": {"T": {"type": "DT_FLOAT"}, "Tpaddings": {"type": "DT_INT32"}}}, {"name": "StatefulPartitionedCall/transpose_69", "op": "Transpose", "input": ["StatefulPartitionedCall/Pad_20", "StatefulPartitionedCall/transpose_69/perm"], "attr": {"Tperm": {"type": "DT_INT32"}, "T": {"type": "DT_FLOAT"}}}, {"name": "StatefulPartitionedCall/convolution_22/ExpandDims", "op": "ExpandDims", "input": ["StatefulPartitionedCall/transpose_69", "StatefulPartitionedCall/convolution_22/ExpandDims/dim"], "attr": {"T": {"type": "DT_FLOAT"}, "Tdim": {"type": "DT_INT32"}}}, {"name": "StatefulPartitionedCall/convolution_22", "op": "Conv2D", "input": ["StatefulPartitionedCall/convolution_22/ExpandDims", "StatefulPartitionedCall/convolution_22/ExpandDims_1"], "device": "/device:CPU:0", "attr": {"dilations": {"list": {"i": ["1", "1", "1", "1"]}}, "use_cudnn_on_gpu": {"b": true}, "strides": {"list": {"i": ["1", "1", "1", "1"]}}, "padding": {"s": "VkFMSUQ="}, "explicit_paddings": {"list": {}}, "data_format": {"s": "TkhXQw=="}, "T": {"type": "DT_FLOAT"}}}, {"name": "StatefulPartitionedCall/convolution_22/Squeeze", "op": "Squeeze", "input": ["StatefulPartitionedCall/convolution_22"], "attr": {"squeeze_dims": {"list": {"i": ["-3"]}}, "T": {"type": "DT_FLOAT"}}}, {"name": "StatefulPartitionedCall/Add_22", "op": "AddV2", "input": ["StatefulPartitionedCall/convolution_22/Squeeze", "unknown_44"], "attr": {"T": {"type": "DT_FLOAT"}}}, {"name": "StatefulPartitionedCall/transpose_70", "op": "Transpose", "input": ["StatefulPartitionedCall/Add_22", "StatefulPartitionedCall/transpose_70/perm"], "attr": {"T": {"type": "DT_FLOAT"}, "Tperm": {"type": "DT_INT32"}}}, {"name": "StatefulPartitionedCall/onnx_tf_prefix_Add_53", "op": "AddV2", "input": ["StatefulPartitionedCall/transpose_70", "StatefulPartitionedCall/onnx_tf_prefix_Relu_49"], "attr": {"T": {"type": "DT_FLOAT"}}}, {"name": "StatefulPartitionedCall/onnx_tf_prefix_Relu_54", "op": "Relu", "input": ["StatefulPartitionedCall/onnx_tf_prefix_Add_53"], "attr": {"T": {"type": "DT_FLOAT"}}}, {"name": "StatefulPartitionedCall/Pad_21", "op": "Pad", "input": ["StatefulPartitionedCall/onnx_tf_prefix_Relu_54", "StatefulPartitionedCall/Const_21"], "attr": {"T": {"type": "DT_FLOAT"}, "Tpaddings": {"type": "DT_INT32"}}}, {"name": "StatefulPartitionedCall/transpose_72", "op": "Transpose", "input": ["StatefulPartitionedCall/Pad_21", "StatefulPartitionedCall/transpose_72/perm"], "attr": {"T": {"type": "DT_FLOAT"}, "Tperm": {"type": "DT_INT32"}}}, {"name": "StatefulPartitionedCall/convolution_23/ExpandDims", "op": "ExpandDims", "input": ["StatefulPartitionedCall/transpose_72", "StatefulPartitionedCall/convolution_23/ExpandDims/dim"], "attr": {"T": {"type": "DT_FLOAT"}, "Tdim": {"type": "DT_INT32"}}}, {"name": "StatefulPartitionedCall/convolution_23", "op": "Conv2D", "input": ["StatefulPartitionedCall/convolution_23/ExpandDims", "StatefulPartitionedCall/convolution_23/ExpandDims_1"], "device": "/device:CPU:0", "attr": {"dilations": {"list": {"i": ["1", "1", "1", "1"]}}, "data_format": {"s": "TkhXQw=="}, "use_cudnn_on_gpu": {"b": true}, "padding": {"s": "VkFMSUQ="}, "T": {"type": "DT_FLOAT"}, "strides": {"list": {"i": ["1", "1", "1", "1"]}}, "explicit_paddings": {"list": {}}}}, {"name": "StatefulPartitionedCall/convolution_23/Squeeze", "op": "Squeeze", "input": ["StatefulPartitionedCall/convolution_23"], "attr": {"squeeze_dims": {"list": {"i": ["-3"]}}, "T": {"type": "DT_FLOAT"}}}, {"name": "StatefulPartitionedCall/Add_23", "op": "AddV2", "input": ["StatefulPartitionedCall/convolution_23/Squeeze", "unknown_46"], "attr": {"T": {"type": "DT_FLOAT"}}}, {"name": "StatefulPartitionedCall/transpose_73", "op": "Transpose", "input": ["StatefulPartitionedCall/Add_23", "StatefulPartitionedCall/transpose_73/perm"], "attr": {"Tperm": {"type": "DT_INT32"}, "T": {"type": "DT_FLOAT"}}}, {"name": "StatefulPartitionedCall/onnx_tf_prefix_Relu_56", "op": "Relu", "input": ["StatefulPartitionedCall/transpose_73"], "attr": {"T": {"type": "DT_FLOAT"}}}, {"name": "StatefulPartitionedCall/Pad_22", "op": "Pad", "input": ["StatefulPartitionedCall/onnx_tf_prefix_Relu_56", "StatefulPartitionedCall/Const_22"], "attr": {"T": {"type": "DT_FLOAT"}, "Tpaddings": {"type": "DT_INT32"}}}, {"name": "StatefulPartitionedCall/transpose_75", "op": "Transpose", "input": ["StatefulPartitionedCall/Pad_22", "StatefulPartitionedCall/transpose_75/perm"], "attr": {"T": {"type": "DT_FLOAT"}, "Tperm": {"type": "DT_INT32"}}}, {"name": "StatefulPartitionedCall/convolution_24/ExpandDims", "op": "ExpandDims", "input": ["StatefulPartitionedCall/transpose_75", "StatefulPartitionedCall/convolution_24/ExpandDims/dim"], "attr": {"Tdim": {"type": "DT_INT32"}, "T": {"type": "DT_FLOAT"}}}, {"name": "StatefulPartitionedCall/convolution_24", "op": "Conv2D", "input": ["StatefulPartitionedCall/convolution_24/ExpandDims", "StatefulPartitionedCall/convolution_24/ExpandDims_1"], "device": "/device:CPU:0", "attr": {"use_cudnn_on_gpu": {"b": true}, "explicit_paddings": {"list": {}}, "data_format": {"s": "TkhXQw=="}, "dilations": {"list": {"i": ["1", "1", "1", "1"]}}, "T": {"type": "DT_FLOAT"}, "padding": {"s": "VkFMSUQ="}, "strides": {"list": {"i": ["1", "1", "1", "1"]}}}}, {"name": "StatefulPartitionedCall/convolution_24/Squeeze", "op": "Squeeze", "input": ["StatefulPartitionedCall/convolution_24"], "attr": {"squeeze_dims": {"list": {"i": ["-3"]}}, "T": {"type": "DT_FLOAT"}}}, {"name": "StatefulPartitionedCall/Add_24", "op": "AddV2", "input": ["StatefulPartitionedCall/convolution_24/Squeeze", "unknown_48"], "attr": {"T": {"type": "DT_FLOAT"}}}, {"name": "StatefulPartitionedCall/transpose_76", "op": "Transpose", "input": ["StatefulPartitionedCall/Add_24", "StatefulPartitionedCall/transpose_76/perm"], "attr": {"Tperm": {"type": "DT_INT32"}, "T": {"type": "DT_FLOAT"}}}, {"name": "StatefulPartitionedCall/onnx_tf_prefix_Add_58", "op": "AddV2", "input": ["StatefulPartitionedCall/transpose_76", "StatefulPartitionedCall/onnx_tf_prefix_Relu_54"], "attr": {"T": {"type": "DT_FLOAT"}}}, {"name": "StatefulPartitionedCall/onnx_tf_prefix_Relu_59", "op": "Relu", "input": ["StatefulPartitionedCall/onnx_tf_prefix_Add_58"], "attr": {"T": {"type": "DT_FLOAT"}}}, {"name": "StatefulPartitionedCall/Pad_23", "op": "Pad", "input": ["StatefulPartitionedCall/onnx_tf_prefix_Relu_59", "StatefulPartitionedCall/Const_23"], "attr": {"T": {"type": "DT_FLOAT"}, "Tpaddings": {"type": "DT_INT32"}}}, {"name": "StatefulPartitionedCall/transpose_78", "op": "Transpose", "input": ["StatefulPartitionedCall/Pad_23", "StatefulPartitionedCall/transpose_78/perm"], "attr": {"Tperm": {"type": "DT_INT32"}, "T": {"type": "DT_FLOAT"}}}, {"name": "StatefulPartitionedCall/convolution_25/ExpandDims", "op": "ExpandDims", "input": ["StatefulPartitionedCall/transpose_78", "StatefulPartitionedCall/convolution_25/ExpandDims/dim"], "attr": {"Tdim": {"type": "DT_INT32"}, "T": {"type": "DT_FLOAT"}}}, {"name": "StatefulPartitionedCall/convolution_25", "op": "Conv2D", "input": ["StatefulPartitionedCall/convolution_25/ExpandDims", "StatefulPartitionedCall/convolution_25/ExpandDims_1"], "device": "/device:CPU:0", "attr": {"padding": {"s": "VkFMSUQ="}, "strides": {"list": {"i": ["1", "1", "1", "1"]}}, "dilations": {"list": {"i": ["1", "1", "1", "1"]}}, "data_format": {"s": "TkhXQw=="}, "explicit_paddings": {"list": {}}, "T": {"type": "DT_FLOAT"}, "use_cudnn_on_gpu": {"b": true}}}, {"name": "StatefulPartitionedCall/convolution_25/Squeeze", "op": "Squeeze", "input": ["StatefulPartitionedCall/convolution_25"], "attr": {"T": {"type": "DT_FLOAT"}, "squeeze_dims": {"list": {"i": ["-3"]}}}}, {"name": "StatefulPartitionedCall/Add_25", "op": "AddV2", "input": ["StatefulPartitionedCall/convolution_25/Squeeze", "unknown_50"], "attr": {"T": {"type": "DT_FLOAT"}}}, {"name": "StatefulPartitionedCall/transpose_79", "op": "Transpose", "input": ["StatefulPartitionedCall/Add_25", "StatefulPartitionedCall/transpose_79/perm"], "attr": {"T": {"type": "DT_FLOAT"}, "Tperm": {"type": "DT_INT32"}}}, {"name": "StatefulPartitionedCall/onnx_tf_prefix_Relu_61", "op": "Relu", "input": ["StatefulPartitionedCall/transpose_79"], "attr": {"T": {"type": "DT_FLOAT"}}}, {"name": "StatefulPartitionedCall/Pad_24", "op": "Pad", "input": ["StatefulPartitionedCall/onnx_tf_prefix_Relu_61", "StatefulPartitionedCall/Const_24"], "attr": {"Tpaddings": {"type": "DT_INT32"}, "T": {"type": "DT_FLOAT"}}}, {"name": "StatefulPartitionedCall/transpose_81", "op": "Transpose", "input": ["StatefulPartitionedCall/Pad_24", "StatefulPartitionedCall/transpose_81/perm"], "attr": {"Tperm": {"type": "DT_INT32"}, "T": {"type": "DT_FLOAT"}}}, {"name": "StatefulPartitionedCall/convolution_26/ExpandDims", "op": "ExpandDims", "input": ["StatefulPartitionedCall/transpose_81", "StatefulPartitionedCall/convolution_26/ExpandDims/dim"], "attr": {"Tdim": {"type": "DT_INT32"}, "T": {"type": "DT_FLOAT"}}}, {"name": "StatefulPartitionedCall/convolution_26", "op": "Conv2D", "input": ["StatefulPartitionedCall/convolution_26/ExpandDims", "StatefulPartitionedCall/convolution_26/ExpandDims_1"], "device": "/device:CPU:0", "attr": {"data_format": {"s": "TkhXQw=="}, "explicit_paddings": {"list": {}}, "padding": {"s": "VkFMSUQ="}, "dilations": {"list": {"i": ["1", "1", "1", "1"]}}, "strides": {"list": {"i": ["1", "1", "1", "1"]}}, "use_cudnn_on_gpu": {"b": true}, "T": {"type": "DT_FLOAT"}}}, {"name": "StatefulPartitionedCall/convolution_26/Squeeze", "op": "Squeeze", "input": ["StatefulPartitionedCall/convolution_26"], "attr": {"squeeze_dims": {"list": {"i": ["-3"]}}, "T": {"type": "DT_FLOAT"}}}, {"name": "StatefulPartitionedCall/Add_26", "op": "AddV2", "input": ["StatefulPartitionedCall/convolution_26/Squeeze", "unknown_52"], "attr": {"T": {"type": "DT_FLOAT"}}}, {"name": "StatefulPartitionedCall/transpose_82", "op": "Transpose", "input": ["StatefulPartitionedCall/Add_26", "StatefulPartitionedCall/transpose_82/perm"], "attr": {"T": {"type": "DT_FLOAT"}, "Tperm": {"type": "DT_INT32"}}}, {"name": "StatefulPartitionedCall/onnx_tf_prefix_Add_63", "op": "AddV2", "input": ["StatefulPartitionedCall/transpose_82", "StatefulPartitionedCall/onnx_tf_prefix_Relu_59"], "attr": {"T": {"type": "DT_FLOAT"}}}, {"name": "StatefulPartitionedCall/onnx_tf_prefix_Relu_64", "op": "Relu", "input": ["StatefulPartitionedCall/onnx_tf_prefix_Add_63"], "attr": {"T": {"type": "DT_FLOAT"}}}, {"name": "StatefulPartitionedCall/Pad_25", "op": "Pad", "input": ["StatefulPartitionedCall/onnx_tf_prefix_Relu_64", "StatefulPartitionedCall/Const_25"], "attr": {"T": {"type": "DT_FLOAT"}, "Tpaddings": {"type": "DT_INT32"}}}, {"name": "StatefulPartitionedCall/transpose_84", "op": "Transpose", "input": ["StatefulPartitionedCall/Pad_25", "StatefulPartitionedCall/transpose_84/perm"], "attr": {"T": {"type": "DT_FLOAT"}, "Tperm": {"type": "DT_INT32"}}}, {"name": "StatefulPartitionedCall/convolution_27/ExpandDims", "op": "ExpandDims", "input": ["StatefulPartitionedCall/transpose_84", "StatefulPartitionedCall/convolution_27/ExpandDims/dim"], "attr": {"T": {"type": "DT_FLOAT"}, "Tdim": {"type": "DT_INT32"}}}, {"name": "StatefulPartitionedCall/convolution_27", "op": "Conv2D", "input": ["StatefulPartitionedCall/convolution_27/ExpandDims", "StatefulPartitionedCall/convolution_27/ExpandDims_1"], "device": "/device:CPU:0", "attr": {"dilations": {"list": {"i": ["1", "1", "1", "1"]}}, "T": {"type": "DT_FLOAT"}, "use_cudnn_on_gpu": {"b": true}, "strides": {"list": {"i": ["1", "1", "1", "1"]}}, "explicit_paddings": {"list": {}}, "data_format": {"s": "TkhXQw=="}, "padding": {"s": "VkFMSUQ="}}}, {"name": "StatefulPartitionedCall/convolution_27/Squeeze", "op": "Squeeze", "input": ["StatefulPartitionedCall/convolution_27"], "attr": {"T": {"type": "DT_FLOAT"}, "squeeze_dims": {"list": {"i": ["-3"]}}}}, {"name": "StatefulPartitionedCall/Add_27", "op": "AddV2", "input": ["StatefulPartitionedCall/convolution_27/Squeeze", "unknown_54"], "attr": {"T": {"type": "DT_FLOAT"}}}, {"name": "StatefulPartitionedCall/transpose_85", "op": "Transpose", "input": ["StatefulPartitionedCall/Add_27", "StatefulPartitionedCall/transpose_85/perm"], "attr": {"T": {"type": "DT_FLOAT"}, "Tperm": {"type": "DT_INT32"}}}, {"name": "StatefulPartitionedCall/onnx_tf_prefix_Relu_66", "op": "Relu", "input": ["StatefulPartitionedCall/transpose_85"], "attr": {"T": {"type": "DT_FLOAT"}}}, {"name": "StatefulPartitionedCall/Pad_26", "op": "Pad", "input": ["StatefulPartitionedCall/onnx_tf_prefix_Relu_66", "StatefulPartitionedCall/Const_26"], "attr": {"Tpaddings": {"type": "DT_INT32"}, "T": {"type": "DT_FLOAT"}}}, {"name": "StatefulPartitionedCall/transpose_87", "op": "Transpose", "input": ["StatefulPartitionedCall/Pad_26", "StatefulPartitionedCall/transpose_87/perm"], "attr": {"Tperm": {"type": "DT_INT32"}, "T": {"type": "DT_FLOAT"}}}, {"name": "StatefulPartitionedCall/convolution_28/ExpandDims", "op": "ExpandDims", "input": ["StatefulPartitionedCall/transpose_87", "StatefulPartitionedCall/convolution_28/ExpandDims/dim"], "attr": {"T": {"type": "DT_FLOAT"}, "Tdim": {"type": "DT_INT32"}}}, {"name": "StatefulPartitionedCall/convolution_28", "op": "Conv2D", "input": ["StatefulPartitionedCall/convolution_28/ExpandDims", "StatefulPartitionedCall/convolution_28/ExpandDims_1"], "device": "/device:CPU:0", "attr": {"explicit_paddings": {"list": {}}, "use_cudnn_on_gpu": {"b": true}, "T": {"type": "DT_FLOAT"}, "dilations": {"list": {"i": ["1", "1", "1", "1"]}}, "padding": {"s": "VkFMSUQ="}, "strides": {"list": {"i": ["1", "1", "1", "1"]}}, "data_format": {"s": "TkhXQw=="}}}, {"name": "StatefulPartitionedCall/convolution_28/Squeeze", "op": "Squeeze", "input": ["StatefulPartitionedCall/convolution_28"], "attr": {"T": {"type": "DT_FLOAT"}, "squeeze_dims": {"list": {"i": ["-3"]}}}}, {"name": "StatefulPartitionedCall/Add_28", "op": "AddV2", "input": ["StatefulPartitionedCall/convolution_28/Squeeze", "unknown_56"], "attr": {"T": {"type": "DT_FLOAT"}}}, {"name": "StatefulPartitionedCall/transpose_88", "op": "Transpose", "input": ["StatefulPartitionedCall/Add_28", "StatefulPartitionedCall/transpose_88/perm"], "attr": {"Tperm": {"type": "DT_INT32"}, "T": {"type": "DT_FLOAT"}}}, {"name": "StatefulPartitionedCall/onnx_tf_prefix_Add_68", "op": "AddV2", "input": ["StatefulPartitionedCall/transpose_88", "StatefulPartitionedCall/onnx_tf_prefix_Relu_64"], "attr": {"T": {"type": "DT_FLOAT"}}}, {"name": "StatefulPartitionedCall/onnx_tf_prefix_Relu_69", "op": "Relu", "input": ["StatefulPartitionedCall/onnx_tf_prefix_Add_68"], "attr": {"T": {"type": "DT_FLOAT"}}}, {"name": "StatefulPartitionedCall/Pad_27", "op": "Pad", "input": ["StatefulPartitionedCall/onnx_tf_prefix_Relu_69", "StatefulPartitionedCall/Const_27"], "attr": {"Tpaddings": {"type": "DT_INT32"}, "T": {"type": "DT_FLOAT"}}}, {"name": "StatefulPartitionedCall/transpose_96", "op": "Transpose", "input": ["StatefulPartitionedCall/onnx_tf_prefix_Relu_69", "StatefulPartitionedCall/transpose_96/perm"], "attr": {"T": {"type": "DT_FLOAT"}, "Tperm": {"type": "DT_INT32"}}}, {"name": "StatefulPartitionedCall/transpose_90", "op": "Transpose", "input": ["StatefulPartitionedCall/Pad_27", "StatefulPartitionedCall/transpose_90/perm"], "attr": {"T": {"type": "DT_FLOAT"}, "Tperm": {"type": "DT_INT32"}}}, {"name": "StatefulPartitionedCall/convolution_31/ExpandDims", "op": "ExpandDims", "input": ["StatefulPartitionedCall/transpose_96", "StatefulPartitionedCall/convolution_31/ExpandDims/dim"], "attr": {"T": {"type": "DT_FLOAT"}, "Tdim": {"type": "DT_INT32"}}}, {"name": "StatefulPartitionedCall/convolution_29/ExpandDims", "op": "ExpandDims", "input": ["StatefulPartitionedCall/transpose_90", "StatefulPartitionedCall/convolution_29/ExpandDims/dim"], "attr": {"T": {"type": "DT_FLOAT"}, "Tdim": {"type": "DT_INT32"}}}, {"name": "StatefulPartitionedCall/convolution_31", "op": "Conv2D", "input": ["StatefulPartitionedCall/convolution_31/ExpandDims", "StatefulPartitionedCall/convolution_31/ExpandDims_1"], "device": "/device:CPU:0", "attr": {"padding": {"s": "VkFMSUQ="}, "dilations": {"list": {"i": ["1", "1", "1", "1"]}}, "explicit_paddings": {"list": {}}, "strides": {"list": {"i": ["1", "1", "2", "1"]}}, "data_format": {"s": "TkhXQw=="}, "use_cudnn_on_gpu": {"b": true}, "T": {"type": "DT_FLOAT"}}}, {"name": "StatefulPartitionedCall/convolution_29", "op": "Conv2D", "input": ["StatefulPartitionedCall/convolution_29/ExpandDims", "StatefulPartitionedCall/convolution_29/ExpandDims_1"], "device": "/device:CPU:0", "attr": {"use_cudnn_on_gpu": {"b": true}, "dilations": {"list": {"i": ["1", "1", "1", "1"]}}, "explicit_paddings": {"list": {}}, "data_format": {"s": "TkhXQw=="}, "padding": {"s": "VkFMSUQ="}, "T": {"type": "DT_FLOAT"}, "strides": {"list": {"i": ["1", "1", "2", "1"]}}}}, {"name": "StatefulPartitionedCall/convolution_31/Squeeze", "op": "Squeeze", "input": ["StatefulPartitionedCall/convolution_31"], "attr": {"squeeze_dims": {"list": {"i": ["-3"]}}, "T": {"type": "DT_FLOAT"}}}, {"name": "StatefulPartitionedCall/convolution_29/Squeeze", "op": "Squeeze", "input": ["StatefulPartitionedCall/convolution_29"], "attr": {"squeeze_dims": {"list": {"i": ["-3"]}}, "T": {"type": "DT_FLOAT"}}}, {"name": "StatefulPartitionedCall/Add_31", "op": "AddV2", "input": ["StatefulPartitionedCall/convolution_31/Squeeze", "unknown_62"], "attr": {"T": {"type": "DT_FLOAT"}}}, {"name": "StatefulPartitionedCall/Add_29", "op": "AddV2", "input": ["StatefulPartitionedCall/convolution_29/Squeeze", "unknown_58"], "attr": {"T": {"type": "DT_FLOAT"}}}, {"name": "StatefulPartitionedCall/transpose_97", "op": "Transpose", "input": ["StatefulPartitionedCall/Add_31", "StatefulPartitionedCall/transpose_97/perm"], "attr": {"T": {"type": "DT_FLOAT"}, "Tperm": {"type": "DT_INT32"}}}, {"name": "StatefulPartitionedCall/transpose_91", "op": "Transpose", "input": ["StatefulPartitionedCall/Add_29", "StatefulPartitionedCall/transpose_91/perm"], "attr": {"T": {"type": "DT_FLOAT"}, "Tperm": {"type": "DT_INT32"}}}, {"name": "StatefulPartitionedCall/onnx_tf_prefix_Relu_71", "op": "Relu", "input": ["StatefulPartitionedCall/transpose_91"], "attr": {"T": {"type": "DT_FLOAT"}}}, {"name": "StatefulPartitionedCall/Pad_28", "op": "Pad", "input": ["StatefulPartitionedCall/onnx_tf_prefix_Relu_71", "StatefulPartitionedCall/Const_28"], "attr": {"T": {"type": "DT_FLOAT"}, "Tpaddings": {"type": "DT_INT32"}}}, {"name": "StatefulPartitionedCall/transpose_93", "op": "Transpose", "input": ["StatefulPartitionedCall/Pad_28", "StatefulPartitionedCall/transpose_93/perm"], "attr": {"Tperm": {"type": "DT_INT32"}, "T": {"type": "DT_FLOAT"}}}, {"name": "StatefulPartitionedCall/convolution_30/ExpandDims", "op": "ExpandDims", "input": ["StatefulPartitionedCall/transpose_93", "StatefulPartitionedCall/convolution_30/ExpandDims/dim"], "attr": {"Tdim": {"type": "DT_INT32"}, "T": {"type": "DT_FLOAT"}}}, {"name": "StatefulPartitionedCall/convolution_30", "op": "Conv2D", "input": ["StatefulPartitionedCall/convolution_30/ExpandDims", "StatefulPartitionedCall/convolution_30/ExpandDims_1"], "device": "/device:CPU:0", "attr": {"strides": {"list": {"i": ["1", "1", "1", "1"]}}, "use_cudnn_on_gpu": {"b": true}, "explicit_paddings": {"list": {}}, "data_format": {"s": "TkhXQw=="}, "dilations": {"list": {"i": ["1", "1", "1", "1"]}}, "T": {"type": "DT_FLOAT"}, "padding": {"s": "VkFMSUQ="}}}, {"name": "StatefulPartitionedCall/convolution_30/Squeeze", "op": "Squeeze", "input": ["StatefulPartitionedCall/convolution_30"], "attr": {"T": {"type": "DT_FLOAT"}, "squeeze_dims": {"list": {"i": ["-3"]}}}}, {"name": "StatefulPartitionedCall/Add_30", "op": "AddV2", "input": ["StatefulPartitionedCall/convolution_30/Squeeze", "unknown_60"], "attr": {"T": {"type": "DT_FLOAT"}}}, {"name": "StatefulPartitionedCall/transpose_94", "op": "Transpose", "input": ["StatefulPartitionedCall/Add_30", "StatefulPartitionedCall/transpose_94/perm"], "attr": {"T": {"type": "DT_FLOAT"}, "Tperm": {"type": "DT_INT32"}}}, {"name": "StatefulPartitionedCall/onnx_tf_prefix_Add_74", "op": "AddV2", "input": ["StatefulPartitionedCall/transpose_94", "StatefulPartitionedCall/transpose_97"], "attr": {"T": {"type": "DT_FLOAT"}}}, {"name": "StatefulPartitionedCall/onnx_tf_prefix_Relu_75", "op": "Relu", "input": ["StatefulPartitionedCall/onnx_tf_prefix_Add_74"], "attr": {"T": {"type": "DT_FLOAT"}}}, {"name": "StatefulPartitionedCall/Pad_29", "op": "Pad", "input": ["StatefulPartitionedCall/onnx_tf_prefix_Relu_75", "StatefulPartitionedCall/Const_29"], "attr": {"Tpaddings": {"type": "DT_INT32"}, "T": {"type": "DT_FLOAT"}}}, {"name": "StatefulPartitionedCall/transpose_99", "op": "Transpose", "input": ["StatefulPartitionedCall/Pad_29", "StatefulPartitionedCall/transpose_99/perm"], "attr": {"Tperm": {"type": "DT_INT32"}, "T": {"type": "DT_FLOAT"}}}, {"name": "StatefulPartitionedCall/convolution_32/ExpandDims", "op": "ExpandDims", "input": ["StatefulPartitionedCall/transpose_99", "StatefulPartitionedCall/convolution_32/ExpandDims/dim"], "attr": {"T": {"type": "DT_FLOAT"}, "Tdim": {"type": "DT_INT32"}}}, {"name": "StatefulPartitionedCall/convolution_32", "op": "Conv2D", "input": ["StatefulPartitionedCall/convolution_32/ExpandDims", "StatefulPartitionedCall/convolution_32/ExpandDims_1"], "device": "/device:CPU:0", "attr": {"explicit_paddings": {"list": {}}, "strides": {"list": {"i": ["1", "1", "1", "1"]}}, "dilations": {"list": {"i": ["1", "1", "1", "1"]}}, "T": {"type": "DT_FLOAT"}, "use_cudnn_on_gpu": {"b": true}, "data_format": {"s": "TkhXQw=="}, "padding": {"s": "VkFMSUQ="}}}, {"name": "StatefulPartitionedCall/convolution_32/Squeeze", "op": "Squeeze", "input": ["StatefulPartitionedCall/convolution_32"], "attr": {"squeeze_dims": {"list": {"i": ["-3"]}}, "T": {"type": "DT_FLOAT"}}}, {"name": "StatefulPartitionedCall/Add_32", "op": "AddV2", "input": ["StatefulPartitionedCall/convolution_32/Squeeze", "unknown_64"], "attr": {"T": {"type": "DT_FLOAT"}}}, {"name": "StatefulPartitionedCall/transpose_100", "op": "Transpose", "input": ["StatefulPartitionedCall/Add_32", "StatefulPartitionedCall/transpose_100/perm"], "attr": {"T": {"type": "DT_FLOAT"}, "Tperm": {"type": "DT_INT32"}}}, {"name": "StatefulPartitionedCall/onnx_tf_prefix_Relu_77", "op": "Relu", "input": ["StatefulPartitionedCall/transpose_100"], "attr": {"T": {"type": "DT_FLOAT"}}}, {"name": "StatefulPartitionedCall/Pad_30", "op": "Pad", "input": ["StatefulPartitionedCall/onnx_tf_prefix_Relu_77", "StatefulPartitionedCall/Const_30"], "attr": {"Tpaddings": {"type": "DT_INT32"}, "T": {"type": "DT_FLOAT"}}}, {"name": "StatefulPartitionedCall/transpose_102", "op": "Transpose", "input": ["StatefulPartitionedCall/Pad_30", "StatefulPartitionedCall/transpose_102/perm"], "attr": {"T": {"type": "DT_FLOAT"}, "Tperm": {"type": "DT_INT32"}}}, {"name": "StatefulPartitionedCall/convolution_33/ExpandDims", "op": "ExpandDims", "input": ["StatefulPartitionedCall/transpose_102", "StatefulPartitionedCall/convolution_33/ExpandDims/dim"], "attr": {"T": {"type": "DT_FLOAT"}, "Tdim": {"type": "DT_INT32"}}}, {"name": "StatefulPartitionedCall/convolution_33", "op": "Conv2D", "input": ["StatefulPartitionedCall/convolution_33/ExpandDims", "StatefulPartitionedCall/convolution_33/ExpandDims_1"], "device": "/device:CPU:0", "attr": {"explicit_paddings": {"list": {}}, "use_cudnn_on_gpu": {"b": true}, "dilations": {"list": {"i": ["1", "1", "1", "1"]}}, "T": {"type": "DT_FLOAT"}, "data_format": {"s": "TkhXQw=="}, "padding": {"s": "VkFMSUQ="}, "strides": {"list": {"i": ["1", "1", "1", "1"]}}}}, {"name": "StatefulPartitionedCall/convolution_33/Squeeze", "op": "Squeeze", "input": ["StatefulPartitionedCall/convolution_33"], "attr": {"squeeze_dims": {"list": {"i": ["-3"]}}, "T": {"type": "DT_FLOAT"}}}, {"name": "StatefulPartitionedCall/Add_33", "op": "AddV2", "input": ["StatefulPartitionedCall/convolution_33/Squeeze", "unknown_66"], "attr": {"T": {"type": "DT_FLOAT"}}}, {"name": "StatefulPartitionedCall/transpose_103", "op": "Transpose", "input": ["StatefulPartitionedCall/Add_33", "StatefulPartitionedCall/transpose_103/perm"], "attr": {"T": {"type": "DT_FLOAT"}, "Tperm": {"type": "DT_INT32"}}}, {"name": "StatefulPartitionedCall/onnx_tf_prefix_Add_79", "op": "AddV2", "input": ["StatefulPartitionedCall/transpose_103", "StatefulPartitionedCall/onnx_tf_prefix_Relu_75"], "attr": {"T": {"type": "DT_FLOAT"}}}, {"name": "StatefulPartitionedCall/onnx_tf_prefix_Relu_80", "op": "Relu", "input": ["StatefulPartitionedCall/onnx_tf_prefix_Add_79"], "attr": {"T": {"type": "DT_FLOAT"}}}, {"name": "StatefulPartitionedCall/Pad_31", "op": "Pad", "input": ["StatefulPartitionedCall/onnx_tf_prefix_Relu_80", "StatefulPartitionedCall/Const_31"], "attr": {"Tpaddings": {"type": "DT_INT32"}, "T": {"type": "DT_FLOAT"}}}, {"name": "StatefulPartitionedCall/transpose_105", "op": "Transpose", "input": ["StatefulPartitionedCall/Pad_31", "StatefulPartitionedCall/transpose_105/perm"], "attr": {"Tperm": {"type": "DT_INT32"}, "T": {"type": "DT_FLOAT"}}}, {"name": "StatefulPartitionedCall/convolution_34/ExpandDims", "op": "ExpandDims", "input": ["StatefulPartitionedCall/transpose_105", "StatefulPartitionedCall/convolution_34/ExpandDims/dim"], "attr": {"Tdim": {"type": "DT_INT32"}, "T": {"type": "DT_FLOAT"}}}, {"name": "StatefulPartitionedCall/convolution_34", "op": "Conv2D", "input": ["StatefulPartitionedCall/convolution_34/ExpandDims", "StatefulPartitionedCall/convolution_34/ExpandDims_1"], "device": "/device:CPU:0", "attr": {"dilations": {"list": {"i": ["1", "1", "1", "1"]}}, "explicit_paddings": {"list": {}}, "strides": {"list": {"i": ["1", "1", "1", "1"]}}, "data_format": {"s": "TkhXQw=="}, "T": {"type": "DT_FLOAT"}, "use_cudnn_on_gpu": {"b": true}, "padding": {"s": "VkFMSUQ="}}}, {"name": "StatefulPartitionedCall/convolution_34/Squeeze", "op": "Squeeze", "input": ["StatefulPartitionedCall/convolution_34"], "attr": {"squeeze_dims": {"list": {"i": ["-3"]}}, "T": {"type": "DT_FLOAT"}}}, {"name": "StatefulPartitionedCall/Add_34", "op": "AddV2", "input": ["StatefulPartitionedCall/convolution_34/Squeeze", "unknown_68"], "attr": {"T": {"type": "DT_FLOAT"}}}, {"name": "StatefulPartitionedCall/transpose_106", "op": "Transpose", "input": ["StatefulPartitionedCall/Add_34", "StatefulPartitionedCall/transpose_106/perm"], "attr": {"Tperm": {"type": "DT_INT32"}, "T": {"type": "DT_FLOAT"}}}, {"name": "StatefulPartitionedCall/onnx_tf_prefix_Relu_82", "op": "Relu", "input": ["StatefulPartitionedCall/transpose_106"], "attr": {"T": {"type": "DT_FLOAT"}}}, {"name": "StatefulPartitionedCall/Pad_32", "op": "Pad", "input": ["StatefulPartitionedCall/onnx_tf_prefix_Relu_82", "StatefulPartitionedCall/Const_32"], "attr": {"T": {"type": "DT_FLOAT"}, "Tpaddings": {"type": "DT_INT32"}}}, {"name": "StatefulPartitionedCall/transpose_108", "op": "Transpose", "input": ["StatefulPartitionedCall/Pad_32", "StatefulPartitionedCall/transpose_108/perm"], "attr": {"T": {"type": "DT_FLOAT"}, "Tperm": {"type": "DT_INT32"}}}, {"name": "StatefulPartitionedCall/convolution_35/ExpandDims", "op": "ExpandDims", "input": ["StatefulPartitionedCall/transpose_108", "StatefulPartitionedCall/convolution_35/ExpandDims/dim"], "attr": {"Tdim": {"type": "DT_INT32"}, "T": {"type": "DT_FLOAT"}}}, {"name": "StatefulPartitionedCall/convolution_35", "op": "Conv2D", "input": ["StatefulPartitionedCall/convolution_35/ExpandDims", "StatefulPartitionedCall/convolution_35/ExpandDims_1"], "device": "/device:CPU:0", "attr": {"padding": {"s": "VkFMSUQ="}, "dilations": {"list": {"i": ["1", "1", "1", "1"]}}, "strides": {"list": {"i": ["1", "1", "1", "1"]}}, "explicit_paddings": {"list": {}}, "use_cudnn_on_gpu": {"b": true}, "T": {"type": "DT_FLOAT"}, "data_format": {"s": "TkhXQw=="}}}, {"name": "StatefulPartitionedCall/convolution_35/Squeeze", "op": "Squeeze", "input": ["StatefulPartitionedCall/convolution_35"], "attr": {"squeeze_dims": {"list": {"i": ["-3"]}}, "T": {"type": "DT_FLOAT"}}}, {"name": "StatefulPartitionedCall/Add_35", "op": "AddV2", "input": ["StatefulPartitionedCall/convolution_35/Squeeze", "unknown_70"], "attr": {"T": {"type": "DT_FLOAT"}}}, {"name": "StatefulPartitionedCall/transpose_109", "op": "Transpose", "input": ["StatefulPartitionedCall/Add_35", "StatefulPartitionedCall/transpose_109/perm"], "attr": {"Tperm": {"type": "DT_INT32"}, "T": {"type": "DT_FLOAT"}}}, {"name": "StatefulPartitionedCall/onnx_tf_prefix_Add_84", "op": "AddV2", "input": ["StatefulPartitionedCall/transpose_109", "StatefulPartitionedCall/onnx_tf_prefix_Relu_80"], "attr": {"T": {"type": "DT_FLOAT"}}}, {"name": "StatefulPartitionedCall/onnx_tf_prefix_Relu_85", "op": "Relu", "input": ["StatefulPartitionedCall/onnx_tf_prefix_Add_84"], "attr": {"T": {"type": "DT_FLOAT"}}}, {"name": "StatefulPartitionedCall/Mean", "op": "Mean", "input": ["StatefulPartitionedCall/onnx_tf_prefix_Relu_85", "ConstantFolding/StatefulPartitionedCall/split_36-folded-1"], "attr": {"T": {"type": "DT_FLOAT"}, "keep_dims": {"b": true}, "Tidx": {"type": "DT_INT32"}}}, {"name": "StatefulPartitionedCall/flatten/Reshape", "op": "Reshape", "input": ["StatefulPartitionedCall/Mean", "StatefulPartitionedCall/flatten/Const"], "attr": {"T": {"type": "DT_FLOAT"}, "Tshape": {"type": "DT_INT32"}}}, {"name": "StatefulPartitionedCall/MatMul", "op": "MatMul", "input": ["StatefulPartitionedCall/flatten/Reshape", "StatefulPartitionedCall/transpose_110"], "device": "/device:CPU:0", "attr": {"transpose_a": {"b": false}, "transpose_b": {"b": false}, "T": {"type": "DT_FLOAT"}}}, {"name": "StatefulPartitionedCall/add_38", "op": "AddV2", "input": ["StatefulPartitionedCall/MatMul", "StatefulPartitionedCall/mul_1"], "attr": {"T": {"type": "DT_FLOAT"}}}, {"name": "Identity", "op": "Identity", "input": ["StatefulPartitionedCall/add_38", "^StatefulPartitionedCall/assert_equal_1/Assert/AssertGuard/branch_executed/_87"], "attr": {"T": {"type": "DT_FLOAT"}}}], "library": {}, "versions": {"producer": 808}}, "weightsManifest": [{"paths": ["group1-shard1of7.bin", "group1-shard2of7.bin", "group1-shard3of7.bin", "group1-shard4of7.bin", "group1-shard5of7.bin", "group1-shard6of7.bin", "group1-shard7of7.bin"], "weights": [{"name": "StatefulPartitionedCall/Const_31", "shape": [3, 2], "dtype": "int32"}, {"name": "StatefulPartitionedCall/transpose_105/perm", "shape": [3], "dtype": "int32"}, {"name": "StatefulPartitionedCall/convolution_34/ExpandDims/dim", "shape": [], "dtype": "int32"}, {"name": "StatefulPartitionedCall/convolution_34/ExpandDims_1", "shape": [1, 3, 512, 512], "dtype": "float32"}, {"name": "unknown_68", "shape": [512], "dtype": "float32"}, {"name": "StatefulPartitionedCall/transpose_106/perm", "shape": [3], "dtype": "int32"}, {"name": "StatefulPartitionedCall/Const_32", "shape": [3, 2], "dtype": "int32"}, {"name": "StatefulPartitionedCall/transpose_108/perm", "shape": [3], "dtype": "int32"}, {"name": "StatefulPartitionedCall/convolution_35/ExpandDims/dim", "shape": [], "dtype": "int32"}, {"name": "StatefulPartitionedCall/convolution_35/ExpandDims_1", "shape": [1, 3, 512, 512], "dtype": "float32"}, {"name": "unknown_70", "shape": [512], "dtype": "float32"}, {"name": "StatefulPartitionedCall/transpose_109/perm", "shape": [3], "dtype": "int32"}, {"name": "StatefulPartitionedCall/Const_29", "shape": [3, 2], "dtype": "int32"}, {"name": "StatefulPartitionedCall/transpose_99/perm", "shape": [3], "dtype": "int32"}, {"name": "StatefulPartitionedCall/convolution_32/ExpandDims/dim", "shape": [], "dtype": "int32"}, {"name": "StatefulPartitionedCall/convolution_32/ExpandDims_1", "shape": [1, 3, 512, 512], "dtype": "float32"}, {"name": "unknown_64", "shape": [512], "dtype": "float32"}, {"name": "StatefulPartitionedCall/transpose_100/perm", "shape": [3], "dtype": "int32"}, {"name": "StatefulPartitionedCall/Const_30", "shape": [3, 2], "dtype": "int32"}, {"name": "StatefulPartitionedCall/transpose_102/perm", "shape": [3], "dtype": "int32"}, {"name": "StatefulPartitionedCall/convolution_33/ExpandDims/dim", "shape": [], "dtype": "int32"}, {"name": "StatefulPartitionedCall/convolution_33/ExpandDims_1", "shape": [1, 3, 512, 512], "dtype": "float32"}, {"name": "unknown_66", "shape": [512], "dtype": "float32"}, {"name": "StatefulPartitionedCall/transpose_103/perm", "shape": [3], "dtype": "int32"}, {"name": "StatefulPartitionedCall/Const_27", "shape": [3, 2], "dtype": "int32"}, {"name": "StatefulPartitionedCall/transpose_90/perm", "shape": [3], "dtype": "int32"}, {"name": "StatefulPartitionedCall/convolution_29/ExpandDims/dim", "shape": [], "dtype": "int32"}, {"name": "StatefulPartitionedCall/convolution_29/ExpandDims_1", "shape": [1, 3, 256, 512], "dtype": "float32"}, {"name": "unknown_58", "shape": [512], "dtype": "float32"}, {"name": "StatefulPartitionedCall/transpose_91/perm", "shape": [3], "dtype": "int32"}, {"name": "StatefulPartitionedCall/Const_28", "shape": [3, 2], "dtype": "int32"}, {"name": "StatefulPartitionedCall/transpose_93/perm", "shape": [3], "dtype": "int32"}, {"name": "StatefulPartitionedCall/convolution_30/ExpandDims/dim", "shape": [], "dtype": "int32"}, {"name": "StatefulPartitionedCall/convolution_30/ExpandDims_1", "shape": [1, 3, 512, 512], "dtype": "float32"}, {"name": "unknown_60", "shape": [512], "dtype": "float32"}, {"name": "StatefulPartitionedCall/transpose_94/perm", "shape": [3], "dtype": "int32"}, {"name": "StatefulPartitionedCall/Const_25", "shape": [3, 2], "dtype": "int32"}, {"name": "StatefulPartitionedCall/transpose_84/perm", "shape": [3], "dtype": "int32"}, {"name": "StatefulPartitionedCall/convolution_27/ExpandDims/dim", "shape": [], "dtype": "int32"}, {"name": "StatefulPartitionedCall/convolution_27/ExpandDims_1", "shape": [1, 3, 256, 256], "dtype": "float32"}, {"name": "unknown_54", "shape": [256], "dtype": "float32"}, {"name": "StatefulPartitionedCall/transpose_85/perm", "shape": [3], "dtype": "int32"}, {"name": "StatefulPartitionedCall/Const_26", "shape": [3, 2], "dtype": "int32"}, {"name": "StatefulPartitionedCall/transpose_87/perm", "shape": [3], "dtype": "int32"}, {"name": "StatefulPartitionedCall/convolution_28/ExpandDims/dim", "shape": [], "dtype": "int32"}, {"name": "StatefulPartitionedCall/convolution_28/ExpandDims_1", "shape": [1, 3, 256, 256], "dtype": "float32"}, {"name": "unknown_56", "shape": [256], "dtype": "float32"}, {"name": "StatefulPartitionedCall/transpose_88/perm", "shape": [3], "dtype": "int32"}, {"name": "StatefulPartitionedCall/Const_23", "shape": [3, 2], "dtype": "int32"}, {"name": "StatefulPartitionedCall/transpose_78/perm", "shape": [3], "dtype": "int32"}, {"name": "StatefulPartitionedCall/convolution_25/ExpandDims/dim", "shape": [], "dtype": "int32"}, {"name": "StatefulPartitionedCall/convolution_25/ExpandDims_1", "shape": [1, 3, 256, 256], "dtype": "float32"}, {"name": "unknown_50", "shape": [256], "dtype": "float32"}, {"name": "StatefulPartitionedCall/transpose_79/perm", "shape": [3], "dtype": "int32"}, {"name": "StatefulPartitionedCall/Const_24", "shape": [3, 2], "dtype": "int32"}, {"name": "StatefulPartitionedCall/transpose_81/perm", "shape": [3], "dtype": "int32"}, {"name": "StatefulPartitionedCall/convolution_26/ExpandDims/dim", "shape": [], "dtype": "int32"}, {"name": "StatefulPartitionedCall/convolution_26/ExpandDims_1", "shape": [1, 3, 256, 256], "dtype": "float32"}, {"name": "unknown_52", "shape": [256], "dtype": "float32"}, {"name": "StatefulPartitionedCall/transpose_82/perm", "shape": [3], "dtype": "int32"}, {"name": "StatefulPartitionedCall/Const_21", "shape": [3, 2], "dtype": "int32"}, {"name": "StatefulPartitionedCall/transpose_72/perm", "shape": [3], "dtype": "int32"}, {"name": "StatefulPartitionedCall/convolution_23/ExpandDims/dim", "shape": [], "dtype": "int32"}, {"name": "StatefulPartitionedCall/convolution_23/ExpandDims_1", "shape": [1, 3, 256, 256], "dtype": "float32"}, {"name": "unknown_46", "shape": [256], "dtype": "float32"}, {"name": "StatefulPartitionedCall/transpose_73/perm", "shape": [3], "dtype": "int32"}, {"name": "StatefulPartitionedCall/Const_22", "shape": [3, 2], "dtype": "int32"}, {"name": "StatefulPartitionedCall/transpose_75/perm", "shape": [3], "dtype": "int32"}, {"name": "StatefulPartitionedCall/convolution_24/ExpandDims/dim", "shape": [], "dtype": "int32"}, {"name": "StatefulPartitionedCall/convolution_24/ExpandDims_1", "shape": [1, 3, 256, 256], "dtype": "float32"}, {"name": "unknown_48", "shape": [256], "dtype": "float32"}, {"name": "StatefulPartitionedCall/transpose_76/perm", "shape": [3], "dtype": "int32"}, {"name": "StatefulPartitionedCall/Const_19", "shape": [3, 2], "dtype": "int32"}, {"name": "StatefulPartitionedCall/transpose_66/perm", "shape": [3], "dtype": "int32"}, {"name": "StatefulPartitionedCall/convolution_21/ExpandDims/dim", "shape": [], "dtype": "int32"}, {"name": "StatefulPartitionedCall/convolution_21/ExpandDims_1", "shape": [1, 3, 256, 256], "dtype": "float32"}, {"name": "unknown_42", "shape": [256], "dtype": "float32"}, {"name": "StatefulPartitionedCall/transpose_67/perm", "shape": [3], "dtype": "int32"}, {"name": "StatefulPartitionedCall/Const_20", "shape": [3, 2], "dtype": "int32"}, {"name": "StatefulPartitionedCall/transpose_69/perm", "shape": [3], "dtype": "int32"}, {"name": "StatefulPartitionedCall/convolution_22/ExpandDims/dim", "shape": [], "dtype": "int32"}, {"name": "StatefulPartitionedCall/convolution_22/ExpandDims_1", "shape": [1, 3, 256, 256], "dtype": "float32"}, {"name": "unknown_44", "shape": [256], "dtype": "float32"}, {"name": "StatefulPartitionedCall/transpose_70/perm", "shape": [3], "dtype": "int32"}, {"name": "StatefulPartitionedCall/Const_17", "shape": [3, 2], "dtype": "int32"}, {"name": "StatefulPartitionedCall/transpose_60/perm", "shape": [3], "dtype": "int32"}, {"name": "StatefulPartitionedCall/convolution_19/ExpandDims/dim", "shape": [], "dtype": "int32"}, {"name": "StatefulPartitionedCall/convolution_19/ExpandDims_1", "shape": [1, 3, 256, 256], "dtype": "float32"}, {"name": "unknown_38", "shape": [256], "dtype": "float32"}, {"name": "StatefulPartitionedCall/transpose_61/perm", "shape": [3], "dtype": "int32"}, {"name": "StatefulPartitionedCall/Const_18", "shape": [3, 2], "dtype": "int32"}, {"name": "StatefulPartitionedCall/transpose_63/perm", "shape": [3], "dtype": "int32"}, {"name": "StatefulPartitionedCall/convolution_20/ExpandDims/dim", "shape": [], "dtype": "int32"}, {"name": "StatefulPartitionedCall/convolution_20/ExpandDims_1", "shape": [1, 3, 256, 256], "dtype": "float32"}, {"name": "unknown_40", "shape": [256], "dtype": "float32"}, {"name": "StatefulPartitionedCall/transpose_64/perm", "shape": [3], "dtype": "int32"}, {"name": "StatefulPartitionedCall/Const_15", "shape": [3, 2], "dtype": "int32"}, {"name": "StatefulPartitionedCall/transpose_51/perm", "shape": [3], "dtype": "int32"}, {"name": "StatefulPartitionedCall/convolution_16/ExpandDims/dim", "shape": [], "dtype": "int32"}, {"name": "StatefulPartitionedCall/convolution_16/ExpandDims_1", "shape": [1, 3, 128, 256], "dtype": "float32"}, {"name": "unknown_32", "shape": [256], "dtype": "float32"}, {"name": "StatefulPartitionedCall/transpose_52/perm", "shape": [3], "dtype": "int32"}, {"name": "StatefulPartitionedCall/Const_16", "shape": [3, 2], "dtype": "int32"}, {"name": "StatefulPartitionedCall/transpose_54/perm", "shape": [3], "dtype": "int32"}, {"name": "StatefulPartitionedCall/convolution_17/ExpandDims/dim", "shape": [], "dtype": "int32"}, {"name": "StatefulPartitionedCall/convolution_17/ExpandDims_1", "shape": [1, 3, 256, 256], "dtype": "float32"}, {"name": "unknown_34", "shape": [256], "dtype": "float32"}, {"name": "StatefulPartitionedCall/transpose_55/perm", "shape": [3], "dtype": "int32"}, {"name": "StatefulPartitionedCall/Const_13", "shape": [3, 2], "dtype": "int32"}, {"name": "StatefulPartitionedCall/transpose_45/perm", "shape": [3], "dtype": "int32"}, {"name": "StatefulPartitionedCall/convolution_14/ExpandDims/dim", "shape": [], "dtype": "int32"}, {"name": "StatefulPartitionedCall/convolution_14/ExpandDims_1", "shape": [1, 3, 128, 128], "dtype": "float32"}, {"name": "unknown_28", "shape": [128], "dtype": "float32"}, {"name": "StatefulPartitionedCall/transpose_46/perm", "shape": [3], "dtype": "int32"}, {"name": "StatefulPartitionedCall/Const_14", "shape": [3, 2], "dtype": "int32"}, {"name": "StatefulPartitionedCall/transpose_48/perm", "shape": [3], "dtype": "int32"}, {"name": "StatefulPartitionedCall/convolution_15/ExpandDims/dim", "shape": [], "dtype": "int32"}, {"name": "StatefulPartitionedCall/convolution_15/ExpandDims_1", "shape": [1, 3, 128, 128], "dtype": "float32"}, {"name": "unknown_30", "shape": [128], "dtype": "float32"}, {"name": "StatefulPartitionedCall/transpose_49/perm", "shape": [3], "dtype": "int32"}, {"name": "StatefulPartitionedCall/Const_11", "shape": [3, 2], "dtype": "int32"}, {"name": "StatefulPartitionedCall/transpose_39/perm", "shape": [3], "dtype": "int32"}, {"name": "StatefulPartitionedCall/convolution_12/ExpandDims/dim", "shape": [], "dtype": "int32"}, {"name": "StatefulPartitionedCall/convolution_12/ExpandDims_1", "shape": [1, 3, 128, 128], "dtype": "float32"}, {"name": "unknown_24", "shape": [128], "dtype": "float32"}, {"name": "StatefulPartitionedCall/transpose_40/perm", "shape": [3], "dtype": "int32"}, {"name": "StatefulPartitionedCall/Const_12", "shape": [3, 2], "dtype": "int32"}, {"name": "StatefulPartitionedCall/transpose_42/perm", "shape": [3], "dtype": "int32"}, {"name": "StatefulPartitionedCall/convolution_13/ExpandDims/dim", "shape": [], "dtype": "int32"}, {"name": "StatefulPartitionedCall/convolution_13/ExpandDims_1", "shape": [1, 3, 128, 128], "dtype": "float32"}, {"name": "unknown_26", "shape": [128], "dtype": "float32"}, {"name": "StatefulPartitionedCall/transpose_43/perm", "shape": [3], "dtype": "int32"}, {"name": "StatefulPartitionedCall/Const_9", "shape": [3, 2], "dtype": "int32"}, {"name": "StatefulPartitionedCall/transpose_33/perm", "shape": [3], "dtype": "int32"}, {"name": "StatefulPartitionedCall/convolution_10/ExpandDims/dim", "shape": [], "dtype": "int32"}, {"name": "StatefulPartitionedCall/convolution_10/ExpandDims_1", "shape": [1, 3, 128, 128], "dtype": "float32"}, {"name": "unknown_20", "shape": [128], "dtype": "float32"}, {"name": "StatefulPartitionedCall/transpose_34/perm", "shape": [3], "dtype": "int32"}, {"name": "StatefulPartitionedCall/Const_10", "shape": [3, 2], "dtype": "int32"}, {"name": "StatefulPartitionedCall/transpose_36/perm", "shape": [3], "dtype": "int32"}, {"name": "StatefulPartitionedCall/convolution_11/ExpandDims/dim", "shape": [], "dtype": "int32"}, {"name": "StatefulPartitionedCall/convolution_11/ExpandDims_1", "shape": [1, 3, 128, 128], "dtype": "float32"}, {"name": "unknown_22", "shape": [128], "dtype": "float32"}, {"name": "StatefulPartitionedCall/transpose_37/perm", "shape": [3], "dtype": "int32"}, {"name": "StatefulPartitionedCall/Const_7", "shape": [3, 2], "dtype": "int32"}, {"name": "StatefulPartitionedCall/transpose_24/perm", "shape": [3], "dtype": "int32"}, {"name": "StatefulPartitionedCall/convolution_7/ExpandDims/dim", "shape": [], "dtype": "int32"}, {"name": "StatefulPartitionedCall/convolution_7/ExpandDims_1", "shape": [1, 3, 64, 128], "dtype": "float32"}, {"name": "unknown_14", "shape": [128], "dtype": "float32"}, {"name": "StatefulPartitionedCall/transpose_25/perm", "shape": [3], "dtype": "int32"}, {"name": "StatefulPartitionedCall/Const_8", "shape": [3, 2], "dtype": "int32"}, {"name": "StatefulPartitionedCall/transpose_27/perm", "shape": [3], "dtype": "int32"}, {"name": "StatefulPartitionedCall/convolution_8/ExpandDims/dim", "shape": [], "dtype": "int32"}, {"name": "StatefulPartitionedCall/convolution_8/ExpandDims_1", "shape": [1, 3, 128, 128], "dtype": "float32"}, {"name": "unknown_16", "shape": [128], "dtype": "float32"}, {"name": "StatefulPartitionedCall/transpose_28/perm", "shape": [3], "dtype": "int32"}, {"name": "StatefulPartitionedCall/Const_5", "shape": [3, 2], "dtype": "int32"}, {"name": "StatefulPartitionedCall/transpose_18/perm", "shape": [3], "dtype": "int32"}, {"name": "StatefulPartitionedCall/convolution_5/ExpandDims/dim", "shape": [], "dtype": "int32"}, {"name": "StatefulPartitionedCall/convolution_5/ExpandDims_1", "shape": [1, 3, 64, 64], "dtype": "float32"}, {"name": "unknown_10", "shape": [64], "dtype": "float32"}, {"name": "StatefulPartitionedCall/transpose_19/perm", "shape": [3], "dtype": "int32"}, {"name": "StatefulPartitionedCall/Const_6", "shape": [3, 2], "dtype": "int32"}, {"name": "StatefulPartitionedCall/transpose_21/perm", "shape": [3], "dtype": "int32"}, {"name": "StatefulPartitionedCall/convolution_6/ExpandDims/dim", "shape": [], "dtype": "int32"}, {"name": "StatefulPartitionedCall/convolution_6/ExpandDims_1", "shape": [1, 3, 64, 64], "dtype": "float32"}, {"name": "unknown_12", "shape": [64], "dtype": "float32"}, {"name": "StatefulPartitionedCall/transpose_22/perm", "shape": [3], "dtype": "int32"}, {"name": "StatefulPartitionedCall/Const_3", "shape": [3, 2], "dtype": "int32"}, {"name": "StatefulPartitionedCall/transpose_12/perm", "shape": [3], "dtype": "int32"}, {"name": "StatefulPartitionedCall/convolution_3/ExpandDims/dim", "shape": [], "dtype": "int32"}, {"name": "StatefulPartitionedCall/convolution_3/ExpandDims_1", "shape": [1, 3, 64, 64], "dtype": "float32"}, {"name": "unknown_6", "shape": [64], "dtype": "float32"}, {"name": "StatefulPartitionedCall/transpose_13/perm", "shape": [3], "dtype": "int32"}, {"name": "StatefulPartitionedCall/Const_4", "shape": [3, 2], "dtype": "int32"}, {"name": "StatefulPartitionedCall/transpose_15/perm", "shape": [3], "dtype": "int32"}, {"name": "StatefulPartitionedCall/convolution_4/ExpandDims/dim", "shape": [], "dtype": "int32"}, {"name": "StatefulPartitionedCall/convolution_4/ExpandDims_1", "shape": [1, 3, 64, 64], "dtype": "float32"}, {"name": "unknown_8", "shape": [64], "dtype": "float32"}, {"name": "StatefulPartitionedCall/transpose_16/perm", "shape": [3], "dtype": "int32"}, {"name": "StatefulPartitionedCall/Const_1", "shape": [3, 2], "dtype": "int32"}, {"name": "StatefulPartitionedCall/transpose_6/perm", "shape": [3], "dtype": "int32"}, {"name": "StatefulPartitionedCall/convolution_1/ExpandDims/dim", "shape": [], "dtype": "int32"}, {"name": "StatefulPartitionedCall/convolution_1/ExpandDims_1", "shape": [1, 3, 64, 64], "dtype": "float32"}, {"name": "unknown_2", "shape": [64], "dtype": "float32"}, {"name": "StatefulPartitionedCall/transpose_7/perm", "shape": [3], "dtype": "int32"}, {"name": "StatefulPartitionedCall/Const_2", "shape": [3, 2], "dtype": "int32"}, {"name": "StatefulPartitionedCall/transpose_9/perm", "shape": [3], "dtype": "int32"}, {"name": "StatefulPartitionedCall/convolution_2/ExpandDims/dim", "shape": [], "dtype": "int32"}, {"name": "StatefulPartitionedCall/convolution_2/ExpandDims_1", "shape": [1, 3, 64, 64], "dtype": "float32"}, {"name": "unknown_4", "shape": [64], "dtype": "float32"}, {"name": "StatefulPartitionedCall/transpose_10/perm", "shape": [3], "dtype": "int32"}, {"name": "StatefulPartitionedCall/Const", "shape": [3, 2], "dtype": "int32"}, {"name": "StatefulPartitionedCall/transpose_1/perm", "shape": [3], "dtype": "int32"}, {"name": "StatefulPartitionedCall/convolution/ExpandDims/dim", "shape": [], "dtype": "int32"}, {"name": "StatefulPartitionedCall/convolution/ExpandDims_1", "shape": [1, 7, 1, 64], "dtype": "float32"}, {"name": "unknown_0", "shape": [64], "dtype": "float32"}, {"name": "StatefulPartitionedCall/transpose_2/perm", "shape": [3], "dtype": "int32"}, {"name": "StatefulPartitionedCall/PadV2/paddings", "shape": [3, 2], "dtype": "int32"}, {"name": "StatefulPartitionedCall/PadV2/constant_values", "shape": [], "dtype": "float32"}, {"name": "StatefulPartitionedCall/transpose_3/perm", "shape": [3], "dtype": "int32"}, {"name": "StatefulPartitionedCall/MaxPool1d/ExpandDims/dim", "shape": [], "dtype": "int32"}, {"name": "StatefulPartitionedCall/transpose_4/perm", "shape": [3], "dtype": "int32"}, {"name": "StatefulPartitionedCall/transpose_30/perm", "shape": [3], "dtype": "int32"}, {"name": "StatefulPartitionedCall/convolution_9/ExpandDims/dim", "shape": [], "dtype": "int32"}, {"name": "StatefulPartitionedCall/convolution_9/ExpandDims_1", "shape": [1, 1, 64, 128], "dtype": "float32"}, {"name": "unknown_18", "shape": [128], "dtype": "float32"}, {"name": "StatefulPartitionedCall/transpose_31/perm", "shape": [3], "dtype": "int32"}, {"name": "StatefulPartitionedCall/transpose_57/perm", "shape": [3], "dtype": "int32"}, {"name": "StatefulPartitionedCall/convolution_18/ExpandDims/dim", "shape": [], "dtype": "int32"}, {"name": "StatefulPartitionedCall/convolution_18/ExpandDims_1", "shape": [1, 1, 128, 256], "dtype": "float32"}, {"name": "unknown_36", "shape": [256], "dtype": "float32"}, {"name": "StatefulPartitionedCall/transpose_58/perm", "shape": [3], "dtype": "int32"}, {"name": "StatefulPartitionedCall/transpose_96/perm", "shape": [3], "dtype": "int32"}, {"name": "StatefulPartitionedCall/convolution_31/ExpandDims/dim", "shape": [], "dtype": "int32"}, {"name": "StatefulPartitionedCall/convolution_31/ExpandDims_1", "shape": [1, 1, 256, 512], "dtype": "float32"}, {"name": "unknown_62", "shape": [512], "dtype": "float32"}, {"name": "StatefulPartitionedCall/transpose_97/perm", "shape": [3], "dtype": "int32"}, {"name": "ConstantFolding/StatefulPartitionedCall/split_36-folded-1", "shape": [1], "dtype": "int32"}, {"name": "StatefulPartitionedCall/flatten/Const", "shape": [2], "dtype": "int32"}, {"name": "StatefulPartitionedCall/transpose_110", "shape": [512, 5], "dtype": "float32"}, {"name": "StatefulPartitionedCall/mul_1", "shape": [5], "dtype": "float32"}, {"name": "StatefulPartitionedCall/assert_equal_1/Assert/AssertGuard/pivot_t/_82", "shape": [], "dtype": "bool"}, {"name": "StatefulPartitionedCall/LogicalAnd", "shape": [], "dtype": "bool"}, {"name": "StatefulPartitionedCall/assert_equal_1/y", "shape": [], "dtype": "bool"}, {"name": "StatefulPartitionedCall/assert_equal_1/All", "shape": [], "dtype": "bool"}, {"name": "StatefulPartitionedCall/assert_equal_1/Assert/AssertGuard/else/_79/assert_equal_1/Assert/AssertGuard/Assert/data_0", "shape": [], "dtype": "string"}, {"name": "StatefulPartitionedCall/assert_equal_1/Assert/AssertGuard/else/_79/assert_equal_1/Assert/AssertGuard/Assert/data_1", "shape": [], "dtype": "string"}, {"name": "StatefulPartitionedCall/assert_equal_1/Assert/AssertGuard/else/_79/assert_equal_1/Assert/AssertGuard/Assert/data_2", "shape": [], "dtype": "string"}, {"name": "StatefulPartitionedCall/assert_equal_1/Assert/AssertGuard/else/_79/assert_equal_1/Assert/AssertGuard/Assert/data_4", "shape": [], "dtype": "string"}]}]}